{"format": "graph-model", "generatedBy": "2.18.0", "convertedBy": "TensorFlow.js Converter v4.22.0", "signature": {"inputs": {"images": {"name": "images:0", "dtype": "DT_FLOAT", "tensorShape": {"dim": [{"size": "1"}, {"size": "640"}, {"size": "640"}, {"size": "3"}]}}}, "outputs": {"output0": {"name": "Identity:0", "dtype": "DT_FLOAT", "tensorShape": {"dim": [{"size": "1"}, {"size": "28"}, {"size": "8400"}]}}}}, "modelTopology": {"node": [{"name": "ConstantFolding/PartitionedCall/model_55/tf.math.divide_3/truediv_recip", "op": "Const", "attr": {"value": {"tensor": {"dtype": "DT_FLOAT", "tensorShape": {}}}, "dtype": {"type": "DT_FLOAT"}}}, {"name": "unknown_167", "op": "Const", "attr": {"value": {"tensor": {"dtype": "DT_INT64", "tensorShape": {"dim": [{"size": "3"}]}}}, "dtype": {"type": "DT_INT64"}}}, {"name": "unknown_168", "op": "Const", "attr": {"value": {"tensor": {"dtype": "DT_INT64", "tensorShape": {"dim": [{"size": "3"}]}}}, "dtype": {"type": "DT_INT64"}}}, {"name": "PartitionedCall/model_55/tf.strided_slice_79/ones_like", "op": "Const", "attr": {"value": {"tensor": {"dtype": "DT_INT64", "tensorShape": {"dim": [{"size": "3"}]}}}, "dtype": {"type": "DT_INT64"}}}, {"name": "unknown_171", "op": "Const", "attr": {"value": {"tensor": {"dtype": "DT_FLOAT", "tensorShape": {"dim": [{"size": "1"}, {"size": "2"}, {"size": "8400"}]}}}, "dtype": {"type": "DT_FLOAT"}}}, {"name": "unknown_172", "op": "Const", "attr": {"value": {"tensor": {"dtype": "DT_FLOAT", "tensorShape": {"dim": [{"size": "1"}, {"size": "2"}, {"size": "8400"}]}}}, "dtype": {"type": "DT_FLOAT"}}}, {"name": "unknown_164", "op": "Const", "attr": {"value": {"tensor": {"dtype": "DT_INT64", "tensorShape": {"dim": [{"size": "3"}]}}}, "dtype": {"type": "DT_INT64"}}}, {"name": "unknown_165", "op": "Const", "attr": {"value": {"tensor": {"dtype": "DT_INT64", "tensorShape": {"dim": [{"size": "3"}]}}}, "dtype": {"type": "DT_INT64"}}}, {"name": "PartitionedCall/model_55/tf.strided_slice_76/StridedSlice/strides", "op": "Const", "attr": {"value": {"tensor": {"dtype": "DT_INT64", "tensorShape": {"dim": [{"size": "3"}]}}}, "dtype": {"type": "DT_INT64"}}}, {"name": "PartitionedCall/model_55/tf.reshape_56/Reshape/shape", "op": "Const", "attr": {"value": {"tensor": {"dtype": "DT_INT32", "tensorShape": {"dim": [{"size": "4"}]}}}, "dtype": {"type": "DT_INT32"}}}, {"name": "PartitionedCall/model_55/tf.compat.v1.transpose_355/transpose/perm", "op": "Const", "attr": {"value": {"tensor": {"dtype": "DT_INT32", "tensorShape": {"dim": [{"size": "4"}]}}}, "dtype": {"type": "DT_INT32"}}}, {"name": "PartitionedCall/model_55/tf.compat.v1.transpose_356/transpose/perm", "op": "Const", "attr": {"value": {"tensor": {"dtype": "DT_INT32", "tensorShape": {"dim": [{"size": "4"}]}}}, "dtype": {"type": "DT_INT32"}}}, {"name": "unknown_166", "op": "Const", "attr": {"value": {"tensor": {"dtype": "DT_FLOAT", "tensorShape": {"dim": [{"size": "1"}, {"size": "1"}, {"size": "16"}, {"size": "1"}]}}}, "dtype": {"type": "DT_FLOAT"}}}, {"name": "PartitionedCall/model_55/tf.compat.v1.transpose_361/transpose/perm", "op": "Const", "attr": {"value": {"tensor": {"dtype": "DT_INT32", "tensorShape": {"dim": [{"size": "4"}]}}}, "dtype": {"type": "DT_INT32"}}}, {"name": "PartitionedCall/model_55/tf.reshape_59/Reshape/shape", "op": "Const", "attr": {"value": {"tensor": {"dtype": "DT_INT32", "tensorShape": {"dim": [{"size": "3"}]}}}, "dtype": {"type": "DT_INT32"}}}, {"name": "unknown_169", "op": "Const", "attr": {"value": {"tensor": {"dtype": "DT_INT64", "tensorShape": {"dim": [{"size": "3"}]}}}, "dtype": {"type": "DT_INT64"}}}, {"name": "unknown_170", "op": "Const", "attr": {"value": {"tensor": {"dtype": "DT_INT64", "tensorShape": {"dim": [{"size": "3"}]}}}, "dtype": {"type": "DT_INT64"}}}, {"name": "PartitionedCall/model_55/tf.strided_slice_78/ones_like", "op": "Const", "attr": {"value": {"tensor": {"dtype": "DT_INT64", "tensorShape": {"dim": [{"size": "3"}]}}}, "dtype": {"type": "DT_INT64"}}}, {"name": "PartitionedCall/model_55/tf.concat_86/concat/axis", "op": "Const", "attr": {"value": {"tensor": {"dtype": "DT_INT32", "tensorShape": {}}}, "dtype": {"type": "DT_INT32"}}}, {"name": "PartitionedCall/model_55/tf.math.multiply_1011/Mul/y", "op": "Const", "attr": {"value": {"tensor": {"dtype": "DT_FLOAT", "tensorShape": {"dim": [{"size": "1"}, {"size": "1"}, {"size": "8400"}]}}}, "dtype": {"type": "DT_FLOAT"}}}, {"name": "unknown_133", "op": "Const", "attr": {"value": {"tensor": {"dtype": "DT_FLOAT", "tensorShape": {"dim": [{"size": "3"}, {"size": "3"}, {"size": "64"}, {"size": "64"}]}}}, "dtype": {"type": "DT_FLOAT"}}}, {"name": "unknown_139", "op": "Const", "attr": {"value": {"tensor": {"dtype": "DT_FLOAT", "tensorShape": {"dim": [{"size": "64"}]}}}, "dtype": {"type": "DT_FLOAT"}}}, {"name": "unknown_145", "op": "Const", "attr": {"value": {"tensor": {"dtype": "DT_FLOAT", "tensorShape": {"dim": [{"size": "3"}, {"size": "3"}, {"size": "64"}, {"size": "64"}]}}}, "dtype": {"type": "DT_FLOAT"}}}, {"name": "unknown_151", "op": "Const", "attr": {"value": {"tensor": {"dtype": "DT_FLOAT", "tensorShape": {"dim": [{"size": "64"}]}}}, "dtype": {"type": "DT_FLOAT"}}}, {"name": "unknown_157", "op": "Const", "attr": {"value": {"tensor": {"dtype": "DT_FLOAT", "tensorShape": {"dim": [{"size": "1"}, {"size": "1"}, {"size": "64"}, {"size": "64"}]}}}, "dtype": {"type": "DT_FLOAT"}}}, {"name": "unknown_162", "op": "Const", "attr": {"value": {"tensor": {"dtype": "DT_FLOAT", "tensorShape": {"dim": [{"size": "64"}]}}}, "dtype": {"type": "DT_FLOAT"}}}, {"name": "unknown_132", "op": "Const", "attr": {"value": {"tensor": {"dtype": "DT_FLOAT", "tensorShape": {"dim": [{"size": "3"}, {"size": "3"}, {"size": "64"}, {"size": "64"}]}}}, "dtype": {"type": "DT_FLOAT"}}}, {"name": "unknown_138", "op": "Const", "attr": {"value": {"tensor": {"dtype": "DT_FLOAT", "tensorShape": {"dim": [{"size": "64"}]}}}, "dtype": {"type": "DT_FLOAT"}}}, {"name": "unknown_144", "op": "Const", "attr": {"value": {"tensor": {"dtype": "DT_FLOAT", "tensorShape": {"dim": [{"size": "3"}, {"size": "3"}, {"size": "64"}, {"size": "64"}]}}}, "dtype": {"type": "DT_FLOAT"}}}, {"name": "unknown_150", "op": "Const", "attr": {"value": {"tensor": {"dtype": "DT_FLOAT", "tensorShape": {"dim": [{"size": "64"}]}}}, "dtype": {"type": "DT_FLOAT"}}}, {"name": "unknown_156", "op": "Const", "attr": {"value": {"tensor": {"dtype": "DT_FLOAT", "tensorShape": {"dim": [{"size": "1"}, {"size": "1"}, {"size": "64"}, {"size": "24"}]}}}, "dtype": {"type": "DT_FLOAT"}}}, {"name": "unknown_163", "op": "Const", "attr": {"value": {"tensor": {"dtype": "DT_FLOAT", "tensorShape": {"dim": [{"size": "24"}]}}}, "dtype": {"type": "DT_FLOAT"}}}, {"name": "PartitionedCall/model_55/tf.concat_76/concat/axis", "op": "Const", "attr": {"value": {"tensor": {"dtype": "DT_INT32", "tensorShape": {}}}, "dtype": {"type": "DT_INT32"}}}, {"name": "PartitionedCall/model_55/tf.compat.v1.transpose_322/transpose/perm", "op": "Const", "attr": {"value": {"tensor": {"dtype": "DT_INT32", "tensorShape": {"dim": [{"size": "4"}]}}}, "dtype": {"type": "DT_INT32"}}}, {"name": "PartitionedCall/model_55/tf.reshape_47/Reshape/shape", "op": "Const", "attr": {"value": {"tensor": {"dtype": "DT_INT32", "tensorShape": {"dim": [{"size": "3"}]}}}, "dtype": {"type": "DT_INT32"}}}, {"name": "unknown_131", "op": "Const", "attr": {"value": {"tensor": {"dtype": "DT_FLOAT", "tensorShape": {"dim": [{"size": "3"}, {"size": "3"}, {"size": "128"}, {"size": "64"}]}}}, "dtype": {"type": "DT_FLOAT"}}}, {"name": "unknown_137", "op": "Const", "attr": {"value": {"tensor": {"dtype": "DT_FLOAT", "tensorShape": {"dim": [{"size": "64"}]}}}, "dtype": {"type": "DT_FLOAT"}}}, {"name": "unknown_143", "op": "Const", "attr": {"value": {"tensor": {"dtype": "DT_FLOAT", "tensorShape": {"dim": [{"size": "3"}, {"size": "3"}, {"size": "64"}, {"size": "64"}]}}}, "dtype": {"type": "DT_FLOAT"}}}, {"name": "unknown_149", "op": "Const", "attr": {"value": {"tensor": {"dtype": "DT_FLOAT", "tensorShape": {"dim": [{"size": "64"}]}}}, "dtype": {"type": "DT_FLOAT"}}}, {"name": "unknown_155", "op": "Const", "attr": {"value": {"tensor": {"dtype": "DT_FLOAT", "tensorShape": {"dim": [{"size": "1"}, {"size": "1"}, {"size": "64"}, {"size": "64"}]}}}, "dtype": {"type": "DT_FLOAT"}}}, {"name": "unknown_160", "op": "Const", "attr": {"value": {"tensor": {"dtype": "DT_FLOAT", "tensorShape": {"dim": [{"size": "64"}]}}}, "dtype": {"type": "DT_FLOAT"}}}, {"name": "unknown_130", "op": "Const", "attr": {"value": {"tensor": {"dtype": "DT_FLOAT", "tensorShape": {"dim": [{"size": "3"}, {"size": "3"}, {"size": "128"}, {"size": "64"}]}}}, "dtype": {"type": "DT_FLOAT"}}}, {"name": "unknown_136", "op": "Const", "attr": {"value": {"tensor": {"dtype": "DT_FLOAT", "tensorShape": {"dim": [{"size": "64"}]}}}, "dtype": {"type": "DT_FLOAT"}}}, {"name": "unknown_142", "op": "Const", "attr": {"value": {"tensor": {"dtype": "DT_FLOAT", "tensorShape": {"dim": [{"size": "3"}, {"size": "3"}, {"size": "64"}, {"size": "64"}]}}}, "dtype": {"type": "DT_FLOAT"}}}, {"name": "unknown_148", "op": "Const", "attr": {"value": {"tensor": {"dtype": "DT_FLOAT", "tensorShape": {"dim": [{"size": "64"}]}}}, "dtype": {"type": "DT_FLOAT"}}}, {"name": "unknown_154", "op": "Const", "attr": {"value": {"tensor": {"dtype": "DT_FLOAT", "tensorShape": {"dim": [{"size": "1"}, {"size": "1"}, {"size": "64"}, {"size": "24"}]}}}, "dtype": {"type": "DT_FLOAT"}}}, {"name": "unknown_161", "op": "Const", "attr": {"value": {"tensor": {"dtype": "DT_FLOAT", "tensorShape": {"dim": [{"size": "24"}]}}}, "dtype": {"type": "DT_FLOAT"}}}, {"name": "PartitionedCall/model_55/tf.concat_79/concat/axis", "op": "Const", "attr": {"value": {"tensor": {"dtype": "DT_INT32", "tensorShape": {}}}, "dtype": {"type": "DT_INT32"}}}, {"name": "PartitionedCall/model_55/tf.compat.v1.transpose_336/transpose/perm", "op": "Const", "attr": {"value": {"tensor": {"dtype": "DT_INT32", "tensorShape": {"dim": [{"size": "4"}]}}}, "dtype": {"type": "DT_INT32"}}}, {"name": "PartitionedCall/model_55/tf.reshape_50/Reshape/shape", "op": "Const", "attr": {"value": {"tensor": {"dtype": "DT_INT32", "tensorShape": {"dim": [{"size": "3"}]}}}, "dtype": {"type": "DT_INT32"}}}, {"name": "unknown_129", "op": "Const", "attr": {"value": {"tensor": {"dtype": "DT_FLOAT", "tensorShape": {"dim": [{"size": "3"}, {"size": "3"}, {"size": "256"}, {"size": "64"}]}}}, "dtype": {"type": "DT_FLOAT"}}}, {"name": "unknown_135", "op": "Const", "attr": {"value": {"tensor": {"dtype": "DT_FLOAT", "tensorShape": {"dim": [{"size": "64"}]}}}, "dtype": {"type": "DT_FLOAT"}}}, {"name": "unknown_141", "op": "Const", "attr": {"value": {"tensor": {"dtype": "DT_FLOAT", "tensorShape": {"dim": [{"size": "3"}, {"size": "3"}, {"size": "64"}, {"size": "64"}]}}}, "dtype": {"type": "DT_FLOAT"}}}, {"name": "unknown_147", "op": "Const", "attr": {"value": {"tensor": {"dtype": "DT_FLOAT", "tensorShape": {"dim": [{"size": "64"}]}}}, "dtype": {"type": "DT_FLOAT"}}}, {"name": "unknown_153", "op": "Const", "attr": {"value": {"tensor": {"dtype": "DT_FLOAT", "tensorShape": {"dim": [{"size": "1"}, {"size": "1"}, {"size": "64"}, {"size": "64"}]}}}, "dtype": {"type": "DT_FLOAT"}}}, {"name": "unknown_158", "op": "Const", "attr": {"value": {"tensor": {"dtype": "DT_FLOAT", "tensorShape": {"dim": [{"size": "64"}]}}}, "dtype": {"type": "DT_FLOAT"}}}, {"name": "unknown_124", "op": "Const", "attr": {"value": {"tensor": {"dtype": "DT_INT64", "tensorShape": {"dim": [{"size": "4"}]}}}, "dtype": {"type": "DT_INT64"}}}, {"name": "unknown_125", "op": "Const", "attr": {"value": {"tensor": {"dtype": "DT_INT64", "tensorShape": {"dim": [{"size": "4"}]}}}, "dtype": {"type": "DT_INT64"}}}, {"name": "PartitionedCall/model_55/tf.strided_slice_74/ones_like", "op": "Const", "attr": {"value": {"tensor": {"dtype": "DT_INT64", "tensorShape": {"dim": [{"size": "4"}]}}}, "dtype": {"type": "DT_INT64"}}}, {"name": "unknown_109", "op": "Const", "attr": {"value": {"tensor": {"dtype": "DT_INT64", "tensorShape": {"dim": [{"size": "4"}]}}}, "dtype": {"type": "DT_INT64"}}}, {"name": "unknown_110", "op": "Const", "attr": {"value": {"tensor": {"dtype": "DT_INT64", "tensorShape": {"dim": [{"size": "4"}]}}}, "dtype": {"type": "DT_INT64"}}}, {"name": "PartitionedCall/model_55/tf.strided_slice_72/ones_like", "op": "Const", "attr": {"value": {"tensor": {"dtype": "DT_INT64", "tensorShape": {"dim": [{"size": "4"}]}}}, "dtype": {"type": "DT_INT64"}}}, {"name": "unknown_94", "op": "Const", "attr": {"value": {"tensor": {"dtype": "DT_INT64", "tensorShape": {"dim": [{"size": "4"}]}}}, "dtype": {"type": "DT_INT64"}}}, {"name": "unknown_95", "op": "Const", "attr": {"value": {"tensor": {"dtype": "DT_INT64", "tensorShape": {"dim": [{"size": "4"}]}}}, "dtype": {"type": "DT_INT64"}}}, {"name": "PartitionedCall/model_55/tf.strided_slice_70/ones_like", "op": "Const", "attr": {"value": {"tensor": {"dtype": "DT_INT64", "tensorShape": {"dim": [{"size": "4"}]}}}, "dtype": {"type": "DT_INT64"}}}, {"name": "PartitionedCall/model_55/tf.image.resize_7/resize/size", "op": "Const", "attr": {"value": {"tensor": {"dtype": "DT_INT32", "tensorShape": {"dim": [{"size": "2"}]}}}, "dtype": {"type": "DT_INT32"}}}, {"name": "PartitionedCall/model_55/tf.concat_73/concat/axis", "op": "Const", "attr": {"value": {"tensor": {"dtype": "DT_INT32", "tensorShape": {}}}, "dtype": {"type": "DT_INT32"}}}, {"name": "unknown_86", "op": "Const", "attr": {"value": {"tensor": {"dtype": "DT_FLOAT", "tensorShape": {"dim": [{"size": "1"}, {"size": "1"}, {"size": "192"}, {"size": "64"}]}}}, "dtype": {"type": "DT_FLOAT"}}}, {"name": "unknown_87", "op": "Const", "attr": {"value": {"tensor": {"dtype": "DT_FLOAT", "tensorShape": {"dim": [{"size": "64"}]}}}, "dtype": {"type": "DT_FLOAT"}}}, {"name": "unknown_88", "op": "Const", "attr": {"value": {"tensor": {"dtype": "DT_INT64", "tensorShape": {"dim": [{"size": "4"}]}}}, "dtype": {"type": "DT_INT64"}}}, {"name": "unknown_89", "op": "Const", "attr": {"value": {"tensor": {"dtype": "DT_INT64", "tensorShape": {"dim": [{"size": "4"}]}}}, "dtype": {"type": "DT_INT64"}}}, {"name": "PartitionedCall/model_55/tf.strided_slice_71/ones_like", "op": "Const", "attr": {"value": {"tensor": {"dtype": "DT_INT64", "tensorShape": {"dim": [{"size": "4"}]}}}, "dtype": {"type": "DT_INT64"}}}, {"name": "unknown_90", "op": "Const", "attr": {"value": {"tensor": {"dtype": "DT_FLOAT", "tensorShape": {"dim": [{"size": "3"}, {"size": "3"}, {"size": "32"}, {"size": "32"}]}}}, "dtype": {"type": "DT_FLOAT"}}}, {"name": "unknown_91", "op": "Const", "attr": {"value": {"tensor": {"dtype": "DT_FLOAT", "tensorShape": {"dim": [{"size": "32"}]}}}, "dtype": {"type": "DT_FLOAT"}}}, {"name": "unknown_92", "op": "Const", "attr": {"value": {"tensor": {"dtype": "DT_FLOAT", "tensorShape": {"dim": [{"size": "3"}, {"size": "3"}, {"size": "32"}, {"size": "32"}]}}}, "dtype": {"type": "DT_FLOAT"}}}, {"name": "unknown_93", "op": "Const", "attr": {"value": {"tensor": {"dtype": "DT_FLOAT", "tensorShape": {"dim": [{"size": "32"}]}}}, "dtype": {"type": "DT_FLOAT"}}}, {"name": "PartitionedCall/model_55/tf.concat_74/concat/axis", "op": "Const", "attr": {"value": {"tensor": {"dtype": "DT_INT32", "tensorShape": {}}}, "dtype": {"type": "DT_INT32"}}}, {"name": "unknown_96", "op": "Const", "attr": {"value": {"tensor": {"dtype": "DT_FLOAT", "tensorShape": {"dim": [{"size": "1"}, {"size": "1"}, {"size": "96"}, {"size": "64"}]}}}, "dtype": {"type": "DT_FLOAT"}}}, {"name": "unknown_97", "op": "Const", "attr": {"value": {"tensor": {"dtype": "DT_FLOAT", "tensorShape": {"dim": [{"size": "64"}]}}}, "dtype": {"type": "DT_FLOAT"}}}, {"name": "unknown_98", "op": "Const", "attr": {"value": {"tensor": {"dtype": "DT_INT32", "tensorShape": {"dim": [{"size": "4"}, {"size": "2"}]}}}, "dtype": {"type": "DT_INT32"}}}, {"name": "unknown_99", "op": "Const", "attr": {"value": {"tensor": {"dtype": "DT_FLOAT", "tensorShape": {"dim": [{"size": "3"}, {"size": "3"}, {"size": "64"}, {"size": "64"}]}}}, "dtype": {"type": "DT_FLOAT"}}}, {"name": "unknown_100", "op": "Const", "attr": {"value": {"tensor": {"dtype": "DT_FLOAT", "tensorShape": {"dim": [{"size": "64"}]}}}, "dtype": {"type": "DT_FLOAT"}}}, {"name": "unknown_82", "op": "Const", "attr": {"value": {"tensor": {"dtype": "DT_INT64", "tensorShape": {"dim": [{"size": "4"}]}}}, "dtype": {"type": "DT_INT64"}}}, {"name": "unknown_83", "op": "Const", "attr": {"value": {"tensor": {"dtype": "DT_INT64", "tensorShape": {"dim": [{"size": "4"}]}}}, "dtype": {"type": "DT_INT64"}}}, {"name": "PartitionedCall/model_55/tf.strided_slice_68/ones_like", "op": "Const", "attr": {"value": {"tensor": {"dtype": "DT_INT64", "tensorShape": {"dim": [{"size": "4"}]}}}, "dtype": {"type": "DT_INT64"}}}, {"name": "PartitionedCall/model_55/tf.image.resize_6/resize/size", "op": "Const", "attr": {"value": {"tensor": {"dtype": "DT_INT32", "tensorShape": {"dim": [{"size": "2"}]}}}, "dtype": {"type": "DT_INT32"}}}, {"name": "PartitionedCall/model_55/tf.concat_71/concat/axis", "op": "Const", "attr": {"value": {"tensor": {"dtype": "DT_INT32", "tensorShape": {}}}, "dtype": {"type": "DT_INT32"}}}, {"name": "unknown_74", "op": "Const", "attr": {"value": {"tensor": {"dtype": "DT_FLOAT", "tensorShape": {"dim": [{"size": "1"}, {"size": "1"}, {"size": "384"}, {"size": "128"}]}}}, "dtype": {"type": "DT_FLOAT"}}}, {"name": "unknown_75", "op": "Const", "attr": {"value": {"tensor": {"dtype": "DT_FLOAT", "tensorShape": {"dim": [{"size": "128"}]}}}, "dtype": {"type": "DT_FLOAT"}}}, {"name": "unknown_76", "op": "Const", "attr": {"value": {"tensor": {"dtype": "DT_INT64", "tensorShape": {"dim": [{"size": "4"}]}}}, "dtype": {"type": "DT_INT64"}}}, {"name": "unknown_77", "op": "Const", "attr": {"value": {"tensor": {"dtype": "DT_INT64", "tensorShape": {"dim": [{"size": "4"}]}}}, "dtype": {"type": "DT_INT64"}}}, {"name": "PartitionedCall/model_55/tf.strided_slice_69/ones_like", "op": "Const", "attr": {"value": {"tensor": {"dtype": "DT_INT64", "tensorShape": {"dim": [{"size": "4"}]}}}, "dtype": {"type": "DT_INT64"}}}, {"name": "unknown_78", "op": "Const", "attr": {"value": {"tensor": {"dtype": "DT_FLOAT", "tensorShape": {"dim": [{"size": "3"}, {"size": "3"}, {"size": "64"}, {"size": "64"}]}}}, "dtype": {"type": "DT_FLOAT"}}}, {"name": "unknown_79", "op": "Const", "attr": {"value": {"tensor": {"dtype": "DT_FLOAT", "tensorShape": {"dim": [{"size": "64"}]}}}, "dtype": {"type": "DT_FLOAT"}}}, {"name": "unknown_80", "op": "Const", "attr": {"value": {"tensor": {"dtype": "DT_FLOAT", "tensorShape": {"dim": [{"size": "3"}, {"size": "3"}, {"size": "64"}, {"size": "64"}]}}}, "dtype": {"type": "DT_FLOAT"}}}, {"name": "unknown_81", "op": "Const", "attr": {"value": {"tensor": {"dtype": "DT_FLOAT", "tensorShape": {"dim": [{"size": "64"}]}}}, "dtype": {"type": "DT_FLOAT"}}}, {"name": "PartitionedCall/model_55/tf.concat_72/concat/axis", "op": "Const", "attr": {"value": {"tensor": {"dtype": "DT_INT32", "tensorShape": {}}}, "dtype": {"type": "DT_INT32"}}}, {"name": "unknown_84", "op": "Const", "attr": {"value": {"tensor": {"dtype": "DT_FLOAT", "tensorShape": {"dim": [{"size": "1"}, {"size": "1"}, {"size": "192"}, {"size": "128"}]}}}, "dtype": {"type": "DT_FLOAT"}}}, {"name": "unknown_85", "op": "Const", "attr": {"value": {"tensor": {"dtype": "DT_FLOAT", "tensorShape": {"dim": [{"size": "128"}]}}}, "dtype": {"type": "DT_FLOAT"}}}, {"name": "PartitionedCall/model_55/tf.concat_75/concat/axis", "op": "Const", "attr": {"value": {"tensor": {"dtype": "DT_INT32", "tensorShape": {}}}, "dtype": {"type": "DT_INT32"}}}, {"name": "unknown_101", "op": "Const", "attr": {"value": {"tensor": {"dtype": "DT_FLOAT", "tensorShape": {"dim": [{"size": "1"}, {"size": "1"}, {"size": "192"}, {"size": "128"}]}}}, "dtype": {"type": "DT_FLOAT"}}}, {"name": "unknown_102", "op": "Const", "attr": {"value": {"tensor": {"dtype": "DT_FLOAT", "tensorShape": {"dim": [{"size": "128"}]}}}, "dtype": {"type": "DT_FLOAT"}}}, {"name": "unknown_103", "op": "Const", "attr": {"value": {"tensor": {"dtype": "DT_INT64", "tensorShape": {"dim": [{"size": "4"}]}}}, "dtype": {"type": "DT_INT64"}}}, {"name": "unknown_104", "op": "Const", "attr": {"value": {"tensor": {"dtype": "DT_INT64", "tensorShape": {"dim": [{"size": "4"}]}}}, "dtype": {"type": "DT_INT64"}}}, {"name": "PartitionedCall/model_55/tf.strided_slice_73/ones_like", "op": "Const", "attr": {"value": {"tensor": {"dtype": "DT_INT64", "tensorShape": {"dim": [{"size": "4"}]}}}, "dtype": {"type": "DT_INT64"}}}, {"name": "unknown_105", "op": "Const", "attr": {"value": {"tensor": {"dtype": "DT_FLOAT", "tensorShape": {"dim": [{"size": "3"}, {"size": "3"}, {"size": "64"}, {"size": "64"}]}}}, "dtype": {"type": "DT_FLOAT"}}}, {"name": "unknown_106", "op": "Const", "attr": {"value": {"tensor": {"dtype": "DT_FLOAT", "tensorShape": {"dim": [{"size": "64"}]}}}, "dtype": {"type": "DT_FLOAT"}}}, {"name": "unknown_107", "op": "Const", "attr": {"value": {"tensor": {"dtype": "DT_FLOAT", "tensorShape": {"dim": [{"size": "3"}, {"size": "3"}, {"size": "64"}, {"size": "64"}]}}}, "dtype": {"type": "DT_FLOAT"}}}, {"name": "unknown_108", "op": "Const", "attr": {"value": {"tensor": {"dtype": "DT_FLOAT", "tensorShape": {"dim": [{"size": "64"}]}}}, "dtype": {"type": "DT_FLOAT"}}}, {"name": "PartitionedCall/model_55/tf.concat_77/concat/axis", "op": "Const", "attr": {"value": {"tensor": {"dtype": "DT_INT32", "tensorShape": {}}}, "dtype": {"type": "DT_INT32"}}}, {"name": "unknown_111", "op": "Const", "attr": {"value": {"tensor": {"dtype": "DT_FLOAT", "tensorShape": {"dim": [{"size": "1"}, {"size": "1"}, {"size": "192"}, {"size": "128"}]}}}, "dtype": {"type": "DT_FLOAT"}}}, {"name": "unknown_112", "op": "Const", "attr": {"value": {"tensor": {"dtype": "DT_FLOAT", "tensorShape": {"dim": [{"size": "128"}]}}}, "dtype": {"type": "DT_FLOAT"}}}, {"name": "unknown_113", "op": "Const", "attr": {"value": {"tensor": {"dtype": "DT_INT32", "tensorShape": {"dim": [{"size": "4"}, {"size": "2"}]}}}, "dtype": {"type": "DT_INT32"}}}, {"name": "unknown_114", "op": "Const", "attr": {"value": {"tensor": {"dtype": "DT_FLOAT", "tensorShape": {"dim": [{"size": "3"}, {"size": "3"}, {"size": "128"}, {"size": "128"}]}}}, "dtype": {"type": "DT_FLOAT"}}}, {"name": "unknown_115", "op": "Const", "attr": {"value": {"tensor": {"dtype": "DT_FLOAT", "tensorShape": {"dim": [{"size": "128"}]}}}, "dtype": {"type": "DT_FLOAT"}}}, {"name": "unknown_66", "op": "Const", "attr": {"value": {"tensor": {"dtype": "DT_INT64", "tensorShape": {"dim": [{"size": "4"}]}}}, "dtype": {"type": "DT_INT64"}}}, {"name": "unknown_67", "op": "Const", "attr": {"value": {"tensor": {"dtype": "DT_INT64", "tensorShape": {"dim": [{"size": "4"}]}}}, "dtype": {"type": "DT_INT64"}}}, {"name": "PartitionedCall/model_55/tf.strided_slice_66/ones_like", "op": "Const", "attr": {"value": {"tensor": {"dtype": "DT_INT64", "tensorShape": {"dim": [{"size": "4"}]}}}, "dtype": {"type": "DT_INT64"}}}, {"name": "unknown_51", "op": "Const", "attr": {"value": {"tensor": {"dtype": "DT_INT64", "tensorShape": {"dim": [{"size": "4"}]}}}, "dtype": {"type": "DT_INT64"}}}, {"name": "unknown_52", "op": "Const", "attr": {"value": {"tensor": {"dtype": "DT_INT64", "tensorShape": {"dim": [{"size": "4"}]}}}, "dtype": {"type": "DT_INT64"}}}, {"name": "PartitionedCall/model_55/tf.strided_slice_64/ones_like", "op": "Const", "attr": {"value": {"tensor": {"dtype": "DT_INT64", "tensorShape": {"dim": [{"size": "4"}]}}}, "dtype": {"type": "DT_INT64"}}}, {"name": "unknown_32", "op": "Const", "attr": {"value": {"tensor": {"dtype": "DT_INT64", "tensorShape": {"dim": [{"size": "4"}]}}}, "dtype": {"type": "DT_INT64"}}}, {"name": "unknown_33", "op": "Const", "attr": {"value": {"tensor": {"dtype": "DT_INT64", "tensorShape": {"dim": [{"size": "4"}]}}}, "dtype": {"type": "DT_INT64"}}}, {"name": "PartitionedCall/model_55/tf.strided_slice_62/ones_like", "op": "Const", "attr": {"value": {"tensor": {"dtype": "DT_INT64", "tensorShape": {"dim": [{"size": "4"}]}}}, "dtype": {"type": "DT_INT64"}}}, {"name": "unknown_13", "op": "Const", "attr": {"value": {"tensor": {"dtype": "DT_INT64", "tensorShape": {"dim": [{"size": "4"}]}}}, "dtype": {"type": "DT_INT64"}}}, {"name": "unknown_14", "op": "Const", "attr": {"value": {"tensor": {"dtype": "DT_INT64", "tensorShape": {"dim": [{"size": "4"}]}}}, "dtype": {"type": "DT_INT64"}}}, {"name": "PartitionedCall/model_55/tf.strided_slice_60/ones_like", "op": "Const", "attr": {"value": {"tensor": {"dtype": "DT_INT64", "tensorShape": {"dim": [{"size": "4"}]}}}, "dtype": {"type": "DT_INT64"}}}, {"name": "unknown", "op": "Const", "attr": {"value": {"tensor": {"dtype": "DT_INT32", "tensorShape": {"dim": [{"size": "4"}, {"size": "2"}]}}}, "dtype": {"type": "DT_INT32"}}}, {"name": "unknown_0", "op": "Const", "attr": {"value": {"tensor": {"dtype": "DT_FLOAT", "tensorShape": {"dim": [{"size": "3"}, {"size": "3"}, {"size": "3"}, {"size": "16"}]}}}, "dtype": {"type": "DT_FLOAT"}}}, {"name": "unknown_1", "op": "Const", "attr": {"value": {"tensor": {"dtype": "DT_FLOAT", "tensorShape": {"dim": [{"size": "16"}]}}}, "dtype": {"type": "DT_FLOAT"}}}, {"name": "unknown_2", "op": "Const", "attr": {"value": {"tensor": {"dtype": "DT_INT32", "tensorShape": {"dim": [{"size": "4"}, {"size": "2"}]}}}, "dtype": {"type": "DT_INT32"}}}, {"name": "unknown_3", "op": "Const", "attr": {"value": {"tensor": {"dtype": "DT_FLOAT", "tensorShape": {"dim": [{"size": "3"}, {"size": "3"}, {"size": "16"}, {"size": "32"}]}}}, "dtype": {"type": "DT_FLOAT"}}}, {"name": "unknown_4", "op": "Const", "attr": {"value": {"tensor": {"dtype": "DT_FLOAT", "tensorShape": {"dim": [{"size": "32"}]}}}, "dtype": {"type": "DT_FLOAT"}}}, {"name": "unknown_5", "op": "Const", "attr": {"value": {"tensor": {"dtype": "DT_FLOAT", "tensorShape": {"dim": [{"size": "1"}, {"size": "1"}, {"size": "32"}, {"size": "32"}]}}}, "dtype": {"type": "DT_FLOAT"}}}, {"name": "unknown_6", "op": "Const", "attr": {"value": {"tensor": {"dtype": "DT_FLOAT", "tensorShape": {"dim": [{"size": "32"}]}}}, "dtype": {"type": "DT_FLOAT"}}}, {"name": "unknown_7", "op": "Const", "attr": {"value": {"tensor": {"dtype": "DT_INT64", "tensorShape": {"dim": [{"size": "4"}]}}}, "dtype": {"type": "DT_INT64"}}}, {"name": "unknown_8", "op": "Const", "attr": {"value": {"tensor": {"dtype": "DT_INT64", "tensorShape": {"dim": [{"size": "4"}]}}}, "dtype": {"type": "DT_INT64"}}}, {"name": "PartitionedCall/model_55/tf.strided_slice_61/ones_like", "op": "Const", "attr": {"value": {"tensor": {"dtype": "DT_INT64", "tensorShape": {"dim": [{"size": "4"}]}}}, "dtype": {"type": "DT_INT64"}}}, {"name": "unknown_9", "op": "Const", "attr": {"value": {"tensor": {"dtype": "DT_FLOAT", "tensorShape": {"dim": [{"size": "3"}, {"size": "3"}, {"size": "16"}, {"size": "16"}]}}}, "dtype": {"type": "DT_FLOAT"}}}, {"name": "unknown_10", "op": "Const", "attr": {"value": {"tensor": {"dtype": "DT_FLOAT", "tensorShape": {"dim": [{"size": "16"}]}}}, "dtype": {"type": "DT_FLOAT"}}}, {"name": "unknown_11", "op": "Const", "attr": {"value": {"tensor": {"dtype": "DT_FLOAT", "tensorShape": {"dim": [{"size": "3"}, {"size": "3"}, {"size": "16"}, {"size": "16"}]}}}, "dtype": {"type": "DT_FLOAT"}}}, {"name": "unknown_12", "op": "Const", "attr": {"value": {"tensor": {"dtype": "DT_FLOAT", "tensorShape": {"dim": [{"size": "16"}]}}}, "dtype": {"type": "DT_FLOAT"}}}, {"name": "PartitionedCall/model_55/tf.concat_66/concat/axis", "op": "Const", "attr": {"value": {"tensor": {"dtype": "DT_INT32", "tensorShape": {}}}, "dtype": {"type": "DT_INT32"}}}, {"name": "unknown_15", "op": "Const", "attr": {"value": {"tensor": {"dtype": "DT_FLOAT", "tensorShape": {"dim": [{"size": "1"}, {"size": "1"}, {"size": "48"}, {"size": "32"}]}}}, "dtype": {"type": "DT_FLOAT"}}}, {"name": "unknown_16", "op": "Const", "attr": {"value": {"tensor": {"dtype": "DT_FLOAT", "tensorShape": {"dim": [{"size": "32"}]}}}, "dtype": {"type": "DT_FLOAT"}}}, {"name": "unknown_17", "op": "Const", "attr": {"value": {"tensor": {"dtype": "DT_INT32", "tensorShape": {"dim": [{"size": "4"}, {"size": "2"}]}}}, "dtype": {"type": "DT_INT32"}}}, {"name": "unknown_18", "op": "Const", "attr": {"value": {"tensor": {"dtype": "DT_FLOAT", "tensorShape": {"dim": [{"size": "3"}, {"size": "3"}, {"size": "32"}, {"size": "64"}]}}}, "dtype": {"type": "DT_FLOAT"}}}, {"name": "unknown_19", "op": "Const", "attr": {"value": {"tensor": {"dtype": "DT_FLOAT", "tensorShape": {"dim": [{"size": "64"}]}}}, "dtype": {"type": "DT_FLOAT"}}}, {"name": "unknown_20", "op": "Const", "attr": {"value": {"tensor": {"dtype": "DT_FLOAT", "tensorShape": {"dim": [{"size": "1"}, {"size": "1"}, {"size": "64"}, {"size": "64"}]}}}, "dtype": {"type": "DT_FLOAT"}}}, {"name": "unknown_21", "op": "Const", "attr": {"value": {"tensor": {"dtype": "DT_FLOAT", "tensorShape": {"dim": [{"size": "64"}]}}}, "dtype": {"type": "DT_FLOAT"}}}, {"name": "unknown_22", "op": "Const", "attr": {"value": {"tensor": {"dtype": "DT_INT64", "tensorShape": {"dim": [{"size": "4"}]}}}, "dtype": {"type": "DT_INT64"}}}, {"name": "unknown_23", "op": "Const", "attr": {"value": {"tensor": {"dtype": "DT_INT64", "tensorShape": {"dim": [{"size": "4"}]}}}, "dtype": {"type": "DT_INT64"}}}, {"name": "PartitionedCall/model_55/tf.strided_slice_63/ones_like", "op": "Const", "attr": {"value": {"tensor": {"dtype": "DT_INT64", "tensorShape": {"dim": [{"size": "4"}]}}}, "dtype": {"type": "DT_INT64"}}}, {"name": "unknown_24", "op": "Const", "attr": {"value": {"tensor": {"dtype": "DT_FLOAT", "tensorShape": {"dim": [{"size": "3"}, {"size": "3"}, {"size": "32"}, {"size": "32"}]}}}, "dtype": {"type": "DT_FLOAT"}}}, {"name": "unknown_25", "op": "Const", "attr": {"value": {"tensor": {"dtype": "DT_FLOAT", "tensorShape": {"dim": [{"size": "32"}]}}}, "dtype": {"type": "DT_FLOAT"}}}, {"name": "unknown_26", "op": "Const", "attr": {"value": {"tensor": {"dtype": "DT_FLOAT", "tensorShape": {"dim": [{"size": "3"}, {"size": "3"}, {"size": "32"}, {"size": "32"}]}}}, "dtype": {"type": "DT_FLOAT"}}}, {"name": "unknown_27", "op": "Const", "attr": {"value": {"tensor": {"dtype": "DT_FLOAT", "tensorShape": {"dim": [{"size": "32"}]}}}, "dtype": {"type": "DT_FLOAT"}}}, {"name": "unknown_28", "op": "Const", "attr": {"value": {"tensor": {"dtype": "DT_FLOAT", "tensorShape": {"dim": [{"size": "3"}, {"size": "3"}, {"size": "32"}, {"size": "32"}]}}}, "dtype": {"type": "DT_FLOAT"}}}, {"name": "unknown_29", "op": "Const", "attr": {"value": {"tensor": {"dtype": "DT_FLOAT", "tensorShape": {"dim": [{"size": "32"}]}}}, "dtype": {"type": "DT_FLOAT"}}}, {"name": "unknown_30", "op": "Const", "attr": {"value": {"tensor": {"dtype": "DT_FLOAT", "tensorShape": {"dim": [{"size": "3"}, {"size": "3"}, {"size": "32"}, {"size": "32"}]}}}, "dtype": {"type": "DT_FLOAT"}}}, {"name": "unknown_31", "op": "Const", "attr": {"value": {"tensor": {"dtype": "DT_FLOAT", "tensorShape": {"dim": [{"size": "32"}]}}}, "dtype": {"type": "DT_FLOAT"}}}, {"name": "PartitionedCall/model_55/tf.concat_67/concat/axis", "op": "Const", "attr": {"value": {"tensor": {"dtype": "DT_INT32", "tensorShape": {}}}, "dtype": {"type": "DT_INT32"}}}, {"name": "unknown_34", "op": "Const", "attr": {"value": {"tensor": {"dtype": "DT_FLOAT", "tensorShape": {"dim": [{"size": "1"}, {"size": "1"}, {"size": "128"}, {"size": "64"}]}}}, "dtype": {"type": "DT_FLOAT"}}}, {"name": "unknown_35", "op": "Const", "attr": {"value": {"tensor": {"dtype": "DT_FLOAT", "tensorShape": {"dim": [{"size": "64"}]}}}, "dtype": {"type": "DT_FLOAT"}}}, {"name": "unknown_36", "op": "Const", "attr": {"value": {"tensor": {"dtype": "DT_INT32", "tensorShape": {"dim": [{"size": "4"}, {"size": "2"}]}}}, "dtype": {"type": "DT_INT32"}}}, {"name": "unknown_37", "op": "Const", "attr": {"value": {"tensor": {"dtype": "DT_FLOAT", "tensorShape": {"dim": [{"size": "3"}, {"size": "3"}, {"size": "64"}, {"size": "128"}]}}}, "dtype": {"type": "DT_FLOAT"}}}, {"name": "unknown_38", "op": "Const", "attr": {"value": {"tensor": {"dtype": "DT_FLOAT", "tensorShape": {"dim": [{"size": "128"}]}}}, "dtype": {"type": "DT_FLOAT"}}}, {"name": "unknown_39", "op": "Const", "attr": {"value": {"tensor": {"dtype": "DT_FLOAT", "tensorShape": {"dim": [{"size": "1"}, {"size": "1"}, {"size": "128"}, {"size": "128"}]}}}, "dtype": {"type": "DT_FLOAT"}}}, {"name": "unknown_40", "op": "Const", "attr": {"value": {"tensor": {"dtype": "DT_FLOAT", "tensorShape": {"dim": [{"size": "128"}]}}}, "dtype": {"type": "DT_FLOAT"}}}, {"name": "unknown_41", "op": "Const", "attr": {"value": {"tensor": {"dtype": "DT_INT64", "tensorShape": {"dim": [{"size": "4"}]}}}, "dtype": {"type": "DT_INT64"}}}, {"name": "unknown_42", "op": "Const", "attr": {"value": {"tensor": {"dtype": "DT_INT64", "tensorShape": {"dim": [{"size": "4"}]}}}, "dtype": {"type": "DT_INT64"}}}, {"name": "PartitionedCall/model_55/tf.strided_slice_65/ones_like", "op": "Const", "attr": {"value": {"tensor": {"dtype": "DT_INT64", "tensorShape": {"dim": [{"size": "4"}]}}}, "dtype": {"type": "DT_INT64"}}}, {"name": "unknown_43", "op": "Const", "attr": {"value": {"tensor": {"dtype": "DT_FLOAT", "tensorShape": {"dim": [{"size": "3"}, {"size": "3"}, {"size": "64"}, {"size": "64"}]}}}, "dtype": {"type": "DT_FLOAT"}}}, {"name": "unknown_44", "op": "Const", "attr": {"value": {"tensor": {"dtype": "DT_FLOAT", "tensorShape": {"dim": [{"size": "64"}]}}}, "dtype": {"type": "DT_FLOAT"}}}, {"name": "unknown_45", "op": "Const", "attr": {"value": {"tensor": {"dtype": "DT_FLOAT", "tensorShape": {"dim": [{"size": "3"}, {"size": "3"}, {"size": "64"}, {"size": "64"}]}}}, "dtype": {"type": "DT_FLOAT"}}}, {"name": "unknown_46", "op": "Const", "attr": {"value": {"tensor": {"dtype": "DT_FLOAT", "tensorShape": {"dim": [{"size": "64"}]}}}, "dtype": {"type": "DT_FLOAT"}}}, {"name": "unknown_47", "op": "Const", "attr": {"value": {"tensor": {"dtype": "DT_FLOAT", "tensorShape": {"dim": [{"size": "3"}, {"size": "3"}, {"size": "64"}, {"size": "64"}]}}}, "dtype": {"type": "DT_FLOAT"}}}, {"name": "unknown_48", "op": "Const", "attr": {"value": {"tensor": {"dtype": "DT_FLOAT", "tensorShape": {"dim": [{"size": "64"}]}}}, "dtype": {"type": "DT_FLOAT"}}}, {"name": "unknown_49", "op": "Const", "attr": {"value": {"tensor": {"dtype": "DT_FLOAT", "tensorShape": {"dim": [{"size": "3"}, {"size": "3"}, {"size": "64"}, {"size": "64"}]}}}, "dtype": {"type": "DT_FLOAT"}}}, {"name": "unknown_50", "op": "Const", "attr": {"value": {"tensor": {"dtype": "DT_FLOAT", "tensorShape": {"dim": [{"size": "64"}]}}}, "dtype": {"type": "DT_FLOAT"}}}, {"name": "PartitionedCall/model_55/tf.concat_68/concat/axis", "op": "Const", "attr": {"value": {"tensor": {"dtype": "DT_INT32", "tensorShape": {}}}, "dtype": {"type": "DT_INT32"}}}, {"name": "unknown_53", "op": "Const", "attr": {"value": {"tensor": {"dtype": "DT_FLOAT", "tensorShape": {"dim": [{"size": "1"}, {"size": "1"}, {"size": "256"}, {"size": "128"}]}}}, "dtype": {"type": "DT_FLOAT"}}}, {"name": "unknown_54", "op": "Const", "attr": {"value": {"tensor": {"dtype": "DT_FLOAT", "tensorShape": {"dim": [{"size": "128"}]}}}, "dtype": {"type": "DT_FLOAT"}}}, {"name": "unknown_55", "op": "Const", "attr": {"value": {"tensor": {"dtype": "DT_INT32", "tensorShape": {"dim": [{"size": "4"}, {"size": "2"}]}}}, "dtype": {"type": "DT_INT32"}}}, {"name": "unknown_56", "op": "Const", "attr": {"value": {"tensor": {"dtype": "DT_FLOAT", "tensorShape": {"dim": [{"size": "3"}, {"size": "3"}, {"size": "128"}, {"size": "256"}]}}}, "dtype": {"type": "DT_FLOAT"}}}, {"name": "unknown_57", "op": "Const", "attr": {"value": {"tensor": {"dtype": "DT_FLOAT", "tensorShape": {"dim": [{"size": "256"}]}}}, "dtype": {"type": "DT_FLOAT"}}}, {"name": "unknown_58", "op": "Const", "attr": {"value": {"tensor": {"dtype": "DT_FLOAT", "tensorShape": {"dim": [{"size": "1"}, {"size": "1"}, {"size": "256"}, {"size": "256"}]}}}, "dtype": {"type": "DT_FLOAT"}}}, {"name": "unknown_59", "op": "Const", "attr": {"value": {"tensor": {"dtype": "DT_FLOAT", "tensorShape": {"dim": [{"size": "256"}]}}}, "dtype": {"type": "DT_FLOAT"}}}, {"name": "unknown_60", "op": "Const", "attr": {"value": {"tensor": {"dtype": "DT_INT64", "tensorShape": {"dim": [{"size": "4"}]}}}, "dtype": {"type": "DT_INT64"}}}, {"name": "unknown_61", "op": "Const", "attr": {"value": {"tensor": {"dtype": "DT_INT64", "tensorShape": {"dim": [{"size": "4"}]}}}, "dtype": {"type": "DT_INT64"}}}, {"name": "PartitionedCall/model_55/tf.strided_slice_67/ones_like", "op": "Const", "attr": {"value": {"tensor": {"dtype": "DT_INT64", "tensorShape": {"dim": [{"size": "4"}]}}}, "dtype": {"type": "DT_INT64"}}}, {"name": "unknown_62", "op": "Const", "attr": {"value": {"tensor": {"dtype": "DT_FLOAT", "tensorShape": {"dim": [{"size": "3"}, {"size": "3"}, {"size": "128"}, {"size": "128"}]}}}, "dtype": {"type": "DT_FLOAT"}}}, {"name": "unknown_63", "op": "Const", "attr": {"value": {"tensor": {"dtype": "DT_FLOAT", "tensorShape": {"dim": [{"size": "128"}]}}}, "dtype": {"type": "DT_FLOAT"}}}, {"name": "unknown_64", "op": "Const", "attr": {"value": {"tensor": {"dtype": "DT_FLOAT", "tensorShape": {"dim": [{"size": "3"}, {"size": "3"}, {"size": "128"}, {"size": "128"}]}}}, "dtype": {"type": "DT_FLOAT"}}}, {"name": "unknown_65", "op": "Const", "attr": {"value": {"tensor": {"dtype": "DT_FLOAT", "tensorShape": {"dim": [{"size": "128"}]}}}, "dtype": {"type": "DT_FLOAT"}}}, {"name": "PartitionedCall/model_55/tf.concat_69/concat/axis", "op": "Const", "attr": {"value": {"tensor": {"dtype": "DT_INT32", "tensorShape": {}}}, "dtype": {"type": "DT_INT32"}}}, {"name": "unknown_68", "op": "Const", "attr": {"value": {"tensor": {"dtype": "DT_FLOAT", "tensorShape": {"dim": [{"size": "1"}, {"size": "1"}, {"size": "384"}, {"size": "256"}]}}}, "dtype": {"type": "DT_FLOAT"}}}, {"name": "unknown_69", "op": "Const", "attr": {"value": {"tensor": {"dtype": "DT_FLOAT", "tensorShape": {"dim": [{"size": "256"}]}}}, "dtype": {"type": "DT_FLOAT"}}}, {"name": "unknown_70", "op": "Const", "attr": {"value": {"tensor": {"dtype": "DT_FLOAT", "tensorShape": {"dim": [{"size": "1"}, {"size": "1"}, {"size": "256"}, {"size": "128"}]}}}, "dtype": {"type": "DT_FLOAT"}}}, {"name": "unknown_71", "op": "Const", "attr": {"value": {"tensor": {"dtype": "DT_FLOAT", "tensorShape": {"dim": [{"size": "128"}]}}}, "dtype": {"type": "DT_FLOAT"}}}, {"name": "PartitionedCall/model_55/tf.concat_70/concat/axis", "op": "Const", "attr": {"value": {"tensor": {"dtype": "DT_INT32", "tensorShape": {}}}, "dtype": {"type": "DT_INT32"}}}, {"name": "unknown_72", "op": "Const", "attr": {"value": {"tensor": {"dtype": "DT_FLOAT", "tensorShape": {"dim": [{"size": "1"}, {"size": "1"}, {"size": "512"}, {"size": "256"}]}}}, "dtype": {"type": "DT_FLOAT"}}}, {"name": "unknown_73", "op": "Const", "attr": {"value": {"tensor": {"dtype": "DT_FLOAT", "tensorShape": {"dim": [{"size": "256"}]}}}, "dtype": {"type": "DT_FLOAT"}}}, {"name": "PartitionedCall/model_55/tf.concat_78/concat/axis", "op": "Const", "attr": {"value": {"tensor": {"dtype": "DT_INT32", "tensorShape": {}}}, "dtype": {"type": "DT_INT32"}}}, {"name": "unknown_116", "op": "Const", "attr": {"value": {"tensor": {"dtype": "DT_FLOAT", "tensorShape": {"dim": [{"size": "1"}, {"size": "1"}, {"size": "384"}, {"size": "256"}]}}}, "dtype": {"type": "DT_FLOAT"}}}, {"name": "unknown_117", "op": "Const", "attr": {"value": {"tensor": {"dtype": "DT_FLOAT", "tensorShape": {"dim": [{"size": "256"}]}}}, "dtype": {"type": "DT_FLOAT"}}}, {"name": "unknown_118", "op": "Const", "attr": {"value": {"tensor": {"dtype": "DT_INT64", "tensorShape": {"dim": [{"size": "4"}]}}}, "dtype": {"type": "DT_INT64"}}}, {"name": "unknown_119", "op": "Const", "attr": {"value": {"tensor": {"dtype": "DT_INT64", "tensorShape": {"dim": [{"size": "4"}]}}}, "dtype": {"type": "DT_INT64"}}}, {"name": "PartitionedCall/model_55/tf.strided_slice_75/ones_like", "op": "Const", "attr": {"value": {"tensor": {"dtype": "DT_INT64", "tensorShape": {"dim": [{"size": "4"}]}}}, "dtype": {"type": "DT_INT64"}}}, {"name": "unknown_120", "op": "Const", "attr": {"value": {"tensor": {"dtype": "DT_FLOAT", "tensorShape": {"dim": [{"size": "3"}, {"size": "3"}, {"size": "128"}, {"size": "128"}]}}}, "dtype": {"type": "DT_FLOAT"}}}, {"name": "unknown_121", "op": "Const", "attr": {"value": {"tensor": {"dtype": "DT_FLOAT", "tensorShape": {"dim": [{"size": "128"}]}}}, "dtype": {"type": "DT_FLOAT"}}}, {"name": "unknown_122", "op": "Const", "attr": {"value": {"tensor": {"dtype": "DT_FLOAT", "tensorShape": {"dim": [{"size": "3"}, {"size": "3"}, {"size": "128"}, {"size": "128"}]}}}, "dtype": {"type": "DT_FLOAT"}}}, {"name": "unknown_123", "op": "Const", "attr": {"value": {"tensor": {"dtype": "DT_FLOAT", "tensorShape": {"dim": [{"size": "128"}]}}}, "dtype": {"type": "DT_FLOAT"}}}, {"name": "PartitionedCall/model_55/tf.concat_80/concat/axis", "op": "Const", "attr": {"value": {"tensor": {"dtype": "DT_INT32", "tensorShape": {}}}, "dtype": {"type": "DT_INT32"}}}, {"name": "unknown_126", "op": "Const", "attr": {"value": {"tensor": {"dtype": "DT_FLOAT", "tensorShape": {"dim": [{"size": "1"}, {"size": "1"}, {"size": "384"}, {"size": "256"}]}}}, "dtype": {"type": "DT_FLOAT"}}}, {"name": "unknown_127", "op": "Const", "attr": {"value": {"tensor": {"dtype": "DT_FLOAT", "tensorShape": {"dim": [{"size": "256"}]}}}, "dtype": {"type": "DT_FLOAT"}}}, {"name": "unknown_128", "op": "Const", "attr": {"value": {"tensor": {"dtype": "DT_FLOAT", "tensorShape": {"dim": [{"size": "3"}, {"size": "3"}, {"size": "256"}, {"size": "64"}]}}}, "dtype": {"type": "DT_FLOAT"}}}, {"name": "unknown_134", "op": "Const", "attr": {"value": {"tensor": {"dtype": "DT_FLOAT", "tensorShape": {"dim": [{"size": "64"}]}}}, "dtype": {"type": "DT_FLOAT"}}}, {"name": "unknown_140", "op": "Const", "attr": {"value": {"tensor": {"dtype": "DT_FLOAT", "tensorShape": {"dim": [{"size": "3"}, {"size": "3"}, {"size": "64"}, {"size": "64"}]}}}, "dtype": {"type": "DT_FLOAT"}}}, {"name": "unknown_146", "op": "Const", "attr": {"value": {"tensor": {"dtype": "DT_FLOAT", "tensorShape": {"dim": [{"size": "64"}]}}}, "dtype": {"type": "DT_FLOAT"}}}, {"name": "unknown_152", "op": "Const", "attr": {"value": {"tensor": {"dtype": "DT_FLOAT", "tensorShape": {"dim": [{"size": "1"}, {"size": "1"}, {"size": "64"}, {"size": "24"}]}}}, "dtype": {"type": "DT_FLOAT"}}}, {"name": "unknown_159", "op": "Const", "attr": {"value": {"tensor": {"dtype": "DT_FLOAT", "tensorShape": {"dim": [{"size": "24"}]}}}, "dtype": {"type": "DT_FLOAT"}}}, {"name": "PartitionedCall/model_55/tf.concat_81/concat/axis", "op": "Const", "attr": {"value": {"tensor": {"dtype": "DT_INT32", "tensorShape": {}}}, "dtype": {"type": "DT_INT32"}}}, {"name": "PartitionedCall/model_55/tf.compat.v1.transpose_348/transpose/perm", "op": "Const", "attr": {"value": {"tensor": {"dtype": "DT_INT32", "tensorShape": {"dim": [{"size": "4"}]}}}, "dtype": {"type": "DT_INT32"}}}, {"name": "PartitionedCall/model_55/tf.reshape_53/Reshape/shape", "op": "Const", "attr": {"value": {"tensor": {"dtype": "DT_INT32", "tensorShape": {"dim": [{"size": "3"}]}}}, "dtype": {"type": "DT_INT32"}}}, {"name": "PartitionedCall/model_55/tf.concat_82/concat/axis", "op": "Const", "attr": {"value": {"tensor": {"dtype": "DT_INT32", "tensorShape": {}}}, "dtype": {"type": "DT_INT32"}}}, {"name": "unknown_173", "op": "Const", "attr": {"value": {"tensor": {"dtype": "DT_INT64", "tensorShape": {"dim": [{"size": "3"}]}}}, "dtype": {"type": "DT_INT64"}}}, {"name": "unknown_174", "op": "Const", "attr": {"value": {"tensor": {"dtype": "DT_INT64", "tensorShape": {"dim": [{"size": "3"}]}}}, "dtype": {"type": "DT_INT64"}}}, {"name": "PartitionedCall/model_55/tf.strided_slice_77/StridedSlice/strides", "op": "Const", "attr": {"value": {"tensor": {"dtype": "DT_INT64", "tensorShape": {"dim": [{"size": "3"}]}}}, "dtype": {"type": "DT_INT64"}}}, {"name": "PartitionedCall/model_55/output0/concat/axis", "op": "Const", "attr": {"value": {"tensor": {"dtype": "DT_INT32", "tensorShape": {}}}, "dtype": {"type": "DT_INT32"}}}, {"name": "images", "op": "Placeholder", "attr": {"shape": {"shape": {"dim": [{"size": "1"}, {"size": "640"}, {"size": "640"}, {"size": "3"}]}}, "dtype": {"type": "DT_FLOAT"}}}, {"name": "PartitionedCall/model_55/tf.compat.v1.pad_21/Pad", "op": "Pad", "input": ["images", "unknown"], "attr": {"Tpaddings": {"type": "DT_INT32"}, "T": {"type": "DT_FLOAT"}}}, {"name": "PartitionedCall/model_55/tf.math.add_231/Add", "op": "_FusedConv2D", "input": ["PartitionedCall/model_55/tf.compat.v1.pad_21/Pad", "unknown_0", "unknown_1"], "device": "/device:CPU:0", "attr": {"num_host_args": {"i": "0"}, "data_format": {"s": "TkhXQw=="}, "filter_format": {"s": "SFdJTw=="}, "fused_ops": {"list": {"s": ["Qmlhc0FkZA=="]}}, "num_args": {"i": "1"}, "strides": {"list": {"i": ["1", "2", "2", "1"]}}, "TArgs": {"list": {"type": ["DT_FLOAT"]}}, "padding": {"s": "VkFMSUQ="}, "use_cudnn_on_gpu": {"b": true}, "leakyrelu_alpha": {"f": 0.2}, "epsilon": {"f": 0.0}, "T": {"type": "DT_FLOAT"}, "explicit_paddings": {"list": {}}, "dilations": {"list": {"i": ["1", "1", "1", "1"]}}}}, {"name": "PartitionedCall/model_55/tf.math.sigmoid_174/Sigmoid", "op": "Sigmoid", "input": ["PartitionedCall/model_55/tf.math.add_231/Add"], "attr": {"T": {"type": "DT_FLOAT"}}}, {"name": "PartitionedCall/model_55/tf.math.multiply_762/Mul", "op": "Mul", "input": ["PartitionedCall/model_55/tf.math.add_231/Add", "PartitionedCall/model_55/tf.math.sigmoid_174/Sigmoid"], "attr": {"T": {"type": "DT_FLOAT"}}}, {"name": "PartitionedCall/model_55/tf.compat.v1.pad_22/Pad", "op": "Pad", "input": ["PartitionedCall/model_55/tf.math.multiply_762/Mul", "unknown_2"], "attr": {"Tpaddings": {"type": "DT_INT32"}, "T": {"type": "DT_FLOAT"}}}, {"name": "PartitionedCall/model_55/tf.math.add_232/Add", "op": "_FusedConv2D", "input": ["PartitionedCall/model_55/tf.compat.v1.pad_22/Pad", "unknown_3", "unknown_4"], "device": "/device:CPU:0", "attr": {"num_host_args": {"i": "0"}, "data_format": {"s": "TkhXQw=="}, "filter_format": {"s": "SFdJTw=="}, "fused_ops": {"list": {"s": ["Qmlhc0FkZA=="]}}, "num_args": {"i": "1"}, "strides": {"list": {"i": ["1", "2", "2", "1"]}}, "TArgs": {"list": {"type": ["DT_FLOAT"]}}, "padding": {"s": "VkFMSUQ="}, "use_cudnn_on_gpu": {"b": true}, "leakyrelu_alpha": {"f": 0.2}, "epsilon": {"f": 0.0}, "T": {"type": "DT_FLOAT"}, "explicit_paddings": {"list": {}}, "dilations": {"list": {"i": ["1", "1", "1", "1"]}}}}, {"name": "PartitionedCall/model_55/tf.math.sigmoid_175/Sigmoid", "op": "Sigmoid", "input": ["PartitionedCall/model_55/tf.math.add_232/Add"], "attr": {"T": {"type": "DT_FLOAT"}}}, {"name": "PartitionedCall/model_55/tf.math.multiply_766/Mul", "op": "Mul", "input": ["PartitionedCall/model_55/tf.math.add_232/Add", "PartitionedCall/model_55/tf.math.sigmoid_175/Sigmoid"], "attr": {"T": {"type": "DT_FLOAT"}}}, {"name": "PartitionedCall/model_55/tf.math.add_233/Add", "op": "_FusedConv2D", "input": ["PartitionedCall/model_55/tf.math.multiply_766/Mul", "unknown_5", "unknown_6"], "device": "/device:CPU:0", "attr": {"num_host_args": {"i": "0"}, "data_format": {"s": "TkhXQw=="}, "filter_format": {"s": "SFdJTw=="}, "fused_ops": {"list": {"s": ["Qmlhc0FkZA=="]}}, "num_args": {"i": "1"}, "strides": {"list": {"i": ["1", "1", "1", "1"]}}, "TArgs": {"list": {"type": ["DT_FLOAT"]}}, "padding": {"s": "U0FNRQ=="}, "use_cudnn_on_gpu": {"b": true}, "leakyrelu_alpha": {"f": 0.2}, "epsilon": {"f": 0.0}, "T": {"type": "DT_FLOAT"}, "explicit_paddings": {"list": {}}, "dilations": {"list": {"i": ["1", "1", "1", "1"]}}}}, {"name": "PartitionedCall/model_55/tf.math.sigmoid_176/Sigmoid", "op": "Sigmoid", "input": ["PartitionedCall/model_55/tf.math.add_233/Add"], "attr": {"T": {"type": "DT_FLOAT"}}}, {"name": "PartitionedCall/model_55/tf.math.multiply_770/Mul", "op": "Mul", "input": ["PartitionedCall/model_55/tf.math.add_233/Add", "PartitionedCall/model_55/tf.math.sigmoid_176/Sigmoid"], "attr": {"T": {"type": "DT_FLOAT"}}}, {"name": "PartitionedCall/model_55/tf.strided_slice_60/StridedSlice", "op": "StridedSlice", "input": ["PartitionedCall/model_55/tf.math.multiply_770/Mul", "unknown_13", "unknown_14", "PartitionedCall/model_55/tf.strided_slice_60/ones_like"], "attr": {"shrink_axis_mask": {"i": "0"}, "new_axis_mask": {"i": "0"}, "Index": {"type": "DT_INT64"}, "begin_mask": {"i": "15"}, "end_mask": {"i": "7"}, "T": {"type": "DT_FLOAT"}, "ellipsis_mask": {"i": "0"}}}, {"name": "PartitionedCall/model_55/tf.strided_slice_61/StridedSlice", "op": "StridedSlice", "input": ["PartitionedCall/model_55/tf.math.multiply_770/Mul", "unknown_7", "unknown_8", "PartitionedCall/model_55/tf.strided_slice_61/ones_like"], "attr": {"shrink_axis_mask": {"i": "0"}, "Index": {"type": "DT_INT64"}, "new_axis_mask": {"i": "0"}, "begin_mask": {"i": "7"}, "end_mask": {"i": "7"}, "T": {"type": "DT_FLOAT"}, "ellipsis_mask": {"i": "0"}}}, {"name": "PartitionedCall/model_55/tf.math.add_234/Add", "op": "_FusedConv2D", "input": ["PartitionedCall/model_55/tf.strided_slice_61/StridedSlice", "unknown_9", "unknown_10"], "device": "/device:CPU:0", "attr": {"num_host_args": {"i": "0"}, "data_format": {"s": "TkhXQw=="}, "filter_format": {"s": "SFdJTw=="}, "strides": {"list": {"i": ["1", "1", "1", "1"]}}, "num_args": {"i": "1"}, "fused_ops": {"list": {"s": ["Qmlhc0FkZA=="]}}, "TArgs": {"list": {"type": ["DT_FLOAT"]}}, "padding": {"s": "U0FNRQ=="}, "use_cudnn_on_gpu": {"b": true}, "leakyrelu_alpha": {"f": 0.2}, "epsilon": {"f": 0.0}, "T": {"type": "DT_FLOAT"}, "explicit_paddings": {"list": {}}, "dilations": {"list": {"i": ["1", "1", "1", "1"]}}}}, {"name": "PartitionedCall/model_55/tf.math.sigmoid_177/Sigmoid", "op": "Sigmoid", "input": ["PartitionedCall/model_55/tf.math.add_234/Add"], "attr": {"T": {"type": "DT_FLOAT"}}}, {"name": "PartitionedCall/model_55/tf.math.multiply_774/Mul", "op": "Mul", "input": ["PartitionedCall/model_55/tf.math.add_234/Add", "PartitionedCall/model_55/tf.math.sigmoid_177/Sigmoid"], "attr": {"T": {"type": "DT_FLOAT"}}}, {"name": "PartitionedCall/model_55/tf.math.add_235/Add", "op": "_FusedConv2D", "input": ["PartitionedCall/model_55/tf.math.multiply_774/Mul", "unknown_11", "unknown_12"], "device": "/device:CPU:0", "attr": {"num_host_args": {"i": "0"}, "data_format": {"s": "TkhXQw=="}, "filter_format": {"s": "SFdJTw=="}, "strides": {"list": {"i": ["1", "1", "1", "1"]}}, "num_args": {"i": "1"}, "fused_ops": {"list": {"s": ["Qmlhc0FkZA=="]}}, "TArgs": {"list": {"type": ["DT_FLOAT"]}}, "padding": {"s": "U0FNRQ=="}, "use_cudnn_on_gpu": {"b": true}, "leakyrelu_alpha": {"f": 0.2}, "epsilon": {"f": 0.0}, "T": {"type": "DT_FLOAT"}, "explicit_paddings": {"list": {}}, "dilations": {"list": {"i": ["1", "1", "1", "1"]}}}}, {"name": "PartitionedCall/model_55/tf.math.sigmoid_178/Sigmoid", "op": "Sigmoid", "input": ["PartitionedCall/model_55/tf.math.add_235/Add"], "attr": {"T": {"type": "DT_FLOAT"}}}, {"name": "PartitionedCall/model_55/tf.math.multiply_778/Mul", "op": "Mul", "input": ["PartitionedCall/model_55/tf.math.add_235/Add", "PartitionedCall/model_55/tf.math.sigmoid_178/Sigmoid"], "attr": {"T": {"type": "DT_FLOAT"}}}, {"name": "PartitionedCall/model_55/tf.math.add_237/Add", "op": "AddV2", "input": ["PartitionedCall/model_55/tf.strided_slice_61/StridedSlice", "PartitionedCall/model_55/tf.math.multiply_778/Mul"], "attr": {"T": {"type": "DT_FLOAT"}}}, {"name": "PartitionedCall/model_55/tf.concat_66/concat", "op": "ConcatV2", "input": ["PartitionedCall/model_55/tf.strided_slice_60/StridedSlice", "PartitionedCall/model_55/tf.strided_slice_61/StridedSlice", "PartitionedCall/model_55/tf.math.add_237/Add", "PartitionedCall/model_55/tf.concat_66/concat/axis"], "attr": {"N": {"i": "3"}, "Tidx": {"type": "DT_INT32"}, "T": {"type": "DT_FLOAT"}}}, {"name": "PartitionedCall/model_55/tf.math.add_238/Add", "op": "_FusedConv2D", "input": ["PartitionedCall/model_55/tf.concat_66/concat", "unknown_15", "unknown_16"], "device": "/device:CPU:0", "attr": {"num_host_args": {"i": "0"}, "data_format": {"s": "TkhXQw=="}, "filter_format": {"s": "SFdJTw=="}, "fused_ops": {"list": {"s": ["Qmlhc0FkZA=="]}}, "num_args": {"i": "1"}, "strides": {"list": {"i": ["1", "1", "1", "1"]}}, "TArgs": {"list": {"type": ["DT_FLOAT"]}}, "padding": {"s": "U0FNRQ=="}, "use_cudnn_on_gpu": {"b": true}, "leakyrelu_alpha": {"f": 0.2}, "epsilon": {"f": 0.0}, "T": {"type": "DT_FLOAT"}, "explicit_paddings": {"list": {}}, "dilations": {"list": {"i": ["1", "1", "1", "1"]}}}}, {"name": "PartitionedCall/model_55/tf.math.sigmoid_179/Sigmoid", "op": "Sigmoid", "input": ["PartitionedCall/model_55/tf.math.add_238/Add"], "attr": {"T": {"type": "DT_FLOAT"}}}, {"name": "PartitionedCall/model_55/tf.math.multiply_784/Mul", "op": "Mul", "input": ["PartitionedCall/model_55/tf.math.add_238/Add", "PartitionedCall/model_55/tf.math.sigmoid_179/Sigmoid"], "attr": {"T": {"type": "DT_FLOAT"}}}, {"name": "PartitionedCall/model_55/tf.compat.v1.pad_23/Pad", "op": "Pad", "input": ["PartitionedCall/model_55/tf.math.multiply_784/Mul", "unknown_17"], "attr": {"Tpaddings": {"type": "DT_INT32"}, "T": {"type": "DT_FLOAT"}}}, {"name": "PartitionedCall/model_55/tf.math.add_239/Add", "op": "_FusedConv2D", "input": ["PartitionedCall/model_55/tf.compat.v1.pad_23/Pad", "unknown_18", "unknown_19"], "device": "/device:CPU:0", "attr": {"num_host_args": {"i": "0"}, "data_format": {"s": "TkhXQw=="}, "filter_format": {"s": "SFdJTw=="}, "strides": {"list": {"i": ["1", "2", "2", "1"]}}, "num_args": {"i": "1"}, "fused_ops": {"list": {"s": ["Qmlhc0FkZA=="]}}, "TArgs": {"list": {"type": ["DT_FLOAT"]}}, "padding": {"s": "VkFMSUQ="}, "use_cudnn_on_gpu": {"b": true}, "leakyrelu_alpha": {"f": 0.2}, "epsilon": {"f": 0.0}, "T": {"type": "DT_FLOAT"}, "explicit_paddings": {"list": {}}, "dilations": {"list": {"i": ["1", "1", "1", "1"]}}}}, {"name": "PartitionedCall/model_55/tf.math.sigmoid_180/Sigmoid", "op": "Sigmoid", "input": ["PartitionedCall/model_55/tf.math.add_239/Add"], "attr": {"T": {"type": "DT_FLOAT"}}}, {"name": "PartitionedCall/model_55/tf.math.multiply_788/Mul", "op": "Mul", "input": ["PartitionedCall/model_55/tf.math.add_239/Add", "PartitionedCall/model_55/tf.math.sigmoid_180/Sigmoid"], "attr": {"T": {"type": "DT_FLOAT"}}}, {"name": "PartitionedCall/model_55/tf.math.add_240/Add", "op": "_FusedConv2D", "input": ["PartitionedCall/model_55/tf.math.multiply_788/Mul", "unknown_20", "unknown_21"], "device": "/device:CPU:0", "attr": {"num_host_args": {"i": "0"}, "data_format": {"s": "TkhXQw=="}, "filter_format": {"s": "SFdJTw=="}, "fused_ops": {"list": {"s": ["Qmlhc0FkZA=="]}}, "num_args": {"i": "1"}, "strides": {"list": {"i": ["1", "1", "1", "1"]}}, "TArgs": {"list": {"type": ["DT_FLOAT"]}}, "padding": {"s": "U0FNRQ=="}, "use_cudnn_on_gpu": {"b": true}, "leakyrelu_alpha": {"f": 0.2}, "epsilon": {"f": 0.0}, "T": {"type": "DT_FLOAT"}, "explicit_paddings": {"list": {}}, "dilations": {"list": {"i": ["1", "1", "1", "1"]}}}}, {"name": "PartitionedCall/model_55/tf.math.sigmoid_181/Sigmoid", "op": "Sigmoid", "input": ["PartitionedCall/model_55/tf.math.add_240/Add"], "attr": {"T": {"type": "DT_FLOAT"}}}, {"name": "PartitionedCall/model_55/tf.math.multiply_792/Mul", "op": "Mul", "input": ["PartitionedCall/model_55/tf.math.add_240/Add", "PartitionedCall/model_55/tf.math.sigmoid_181/Sigmoid"], "attr": {"T": {"type": "DT_FLOAT"}}}, {"name": "PartitionedCall/model_55/tf.strided_slice_62/StridedSlice", "op": "StridedSlice", "input": ["PartitionedCall/model_55/tf.math.multiply_792/Mul", "unknown_32", "unknown_33", "PartitionedCall/model_55/tf.strided_slice_62/ones_like"], "attr": {"shrink_axis_mask": {"i": "0"}, "new_axis_mask": {"i": "0"}, "Index": {"type": "DT_INT64"}, "begin_mask": {"i": "15"}, "T": {"type": "DT_FLOAT"}, "end_mask": {"i": "7"}, "ellipsis_mask": {"i": "0"}}}, {"name": "PartitionedCall/model_55/tf.strided_slice_63/StridedSlice", "op": "StridedSlice", "input": ["PartitionedCall/model_55/tf.math.multiply_792/Mul", "unknown_22", "unknown_23", "PartitionedCall/model_55/tf.strided_slice_63/ones_like"], "attr": {"shrink_axis_mask": {"i": "0"}, "Index": {"type": "DT_INT64"}, "new_axis_mask": {"i": "0"}, "begin_mask": {"i": "7"}, "end_mask": {"i": "7"}, "T": {"type": "DT_FLOAT"}, "ellipsis_mask": {"i": "0"}}}, {"name": "PartitionedCall/model_55/tf.math.add_241/Add", "op": "_FusedConv2D", "input": ["PartitionedCall/model_55/tf.strided_slice_63/StridedSlice", "unknown_24", "unknown_25"], "device": "/device:CPU:0", "attr": {"num_host_args": {"i": "0"}, "data_format": {"s": "TkhXQw=="}, "filter_format": {"s": "SFdJTw=="}, "fused_ops": {"list": {"s": ["Qmlhc0FkZA=="]}}, "num_args": {"i": "1"}, "strides": {"list": {"i": ["1", "1", "1", "1"]}}, "TArgs": {"list": {"type": ["DT_FLOAT"]}}, "padding": {"s": "U0FNRQ=="}, "use_cudnn_on_gpu": {"b": true}, "leakyrelu_alpha": {"f": 0.2}, "epsilon": {"f": 0.0}, "T": {"type": "DT_FLOAT"}, "explicit_paddings": {"list": {}}, "dilations": {"list": {"i": ["1", "1", "1", "1"]}}}}, {"name": "PartitionedCall/model_55/tf.math.sigmoid_182/Sigmoid", "op": "Sigmoid", "input": ["PartitionedCall/model_55/tf.math.add_241/Add"], "attr": {"T": {"type": "DT_FLOAT"}}}, {"name": "PartitionedCall/model_55/tf.math.multiply_796/Mul", "op": "Mul", "input": ["PartitionedCall/model_55/tf.math.add_241/Add", "PartitionedCall/model_55/tf.math.sigmoid_182/Sigmoid"], "attr": {"T": {"type": "DT_FLOAT"}}}, {"name": "PartitionedCall/model_55/tf.math.add_242/Add", "op": "_FusedConv2D", "input": ["PartitionedCall/model_55/tf.math.multiply_796/Mul", "unknown_26", "unknown_27"], "device": "/device:CPU:0", "attr": {"num_host_args": {"i": "0"}, "data_format": {"s": "TkhXQw=="}, "filter_format": {"s": "SFdJTw=="}, "strides": {"list": {"i": ["1", "1", "1", "1"]}}, "num_args": {"i": "1"}, "fused_ops": {"list": {"s": ["Qmlhc0FkZA=="]}}, "TArgs": {"list": {"type": ["DT_FLOAT"]}}, "padding": {"s": "U0FNRQ=="}, "use_cudnn_on_gpu": {"b": true}, "leakyrelu_alpha": {"f": 0.2}, "epsilon": {"f": 0.0}, "T": {"type": "DT_FLOAT"}, "explicit_paddings": {"list": {}}, "dilations": {"list": {"i": ["1", "1", "1", "1"]}}}}, {"name": "PartitionedCall/model_55/tf.math.sigmoid_183/Sigmoid", "op": "Sigmoid", "input": ["PartitionedCall/model_55/tf.math.add_242/Add"], "attr": {"T": {"type": "DT_FLOAT"}}}, {"name": "PartitionedCall/model_55/tf.math.multiply_800/Mul", "op": "Mul", "input": ["PartitionedCall/model_55/tf.math.add_242/Add", "PartitionedCall/model_55/tf.math.sigmoid_183/Sigmoid"], "attr": {"T": {"type": "DT_FLOAT"}}}, {"name": "PartitionedCall/model_55/tf.math.add_244/Add", "op": "AddV2", "input": ["PartitionedCall/model_55/tf.strided_slice_63/StridedSlice", "PartitionedCall/model_55/tf.math.multiply_800/Mul"], "attr": {"T": {"type": "DT_FLOAT"}}}, {"name": "PartitionedCall/model_55/tf.math.add_245/Add", "op": "_FusedConv2D", "input": ["PartitionedCall/model_55/tf.math.add_244/Add", "unknown_28", "unknown_29"], "device": "/device:CPU:0", "attr": {"num_host_args": {"i": "0"}, "data_format": {"s": "TkhXQw=="}, "filter_format": {"s": "SFdJTw=="}, "strides": {"list": {"i": ["1", "1", "1", "1"]}}, "num_args": {"i": "1"}, "fused_ops": {"list": {"s": ["Qmlhc0FkZA=="]}}, "TArgs": {"list": {"type": ["DT_FLOAT"]}}, "padding": {"s": "U0FNRQ=="}, "use_cudnn_on_gpu": {"b": true}, "leakyrelu_alpha": {"f": 0.2}, "epsilon": {"f": 0.0}, "T": {"type": "DT_FLOAT"}, "explicit_paddings": {"list": {}}, "dilations": {"list": {"i": ["1", "1", "1", "1"]}}}}, {"name": "PartitionedCall/model_55/tf.math.sigmoid_184/Sigmoid", "op": "Sigmoid", "input": ["PartitionedCall/model_55/tf.math.add_245/Add"], "attr": {"T": {"type": "DT_FLOAT"}}}, {"name": "PartitionedCall/model_55/tf.math.multiply_806/Mul", "op": "Mul", "input": ["PartitionedCall/model_55/tf.math.add_245/Add", "PartitionedCall/model_55/tf.math.sigmoid_184/Sigmoid"], "attr": {"T": {"type": "DT_FLOAT"}}}, {"name": "PartitionedCall/model_55/tf.math.add_246/Add", "op": "_FusedConv2D", "input": ["PartitionedCall/model_55/tf.math.multiply_806/Mul", "unknown_30", "unknown_31"], "device": "/device:CPU:0", "attr": {"num_host_args": {"i": "0"}, "data_format": {"s": "TkhXQw=="}, "filter_format": {"s": "SFdJTw=="}, "fused_ops": {"list": {"s": ["Qmlhc0FkZA=="]}}, "num_args": {"i": "1"}, "strides": {"list": {"i": ["1", "1", "1", "1"]}}, "TArgs": {"list": {"type": ["DT_FLOAT"]}}, "padding": {"s": "U0FNRQ=="}, "use_cudnn_on_gpu": {"b": true}, "leakyrelu_alpha": {"f": 0.2}, "epsilon": {"f": 0.0}, "T": {"type": "DT_FLOAT"}, "explicit_paddings": {"list": {}}, "dilations": {"list": {"i": ["1", "1", "1", "1"]}}}}, {"name": "PartitionedCall/model_55/tf.math.sigmoid_185/Sigmoid", "op": "Sigmoid", "input": ["PartitionedCall/model_55/tf.math.add_246/Add"], "attr": {"T": {"type": "DT_FLOAT"}}}, {"name": "PartitionedCall/model_55/tf.math.multiply_810/Mul", "op": "Mul", "input": ["PartitionedCall/model_55/tf.math.add_246/Add", "PartitionedCall/model_55/tf.math.sigmoid_185/Sigmoid"], "attr": {"T": {"type": "DT_FLOAT"}}}, {"name": "PartitionedCall/model_55/tf.math.add_248/Add", "op": "AddV2", "input": ["PartitionedCall/model_55/tf.math.add_244/Add", "PartitionedCall/model_55/tf.math.multiply_810/Mul"], "attr": {"T": {"type": "DT_FLOAT"}}}, {"name": "PartitionedCall/model_55/tf.concat_67/concat", "op": "ConcatV2", "input": ["PartitionedCall/model_55/tf.strided_slice_62/StridedSlice", "PartitionedCall/model_55/tf.strided_slice_63/StridedSlice", "PartitionedCall/model_55/tf.math.add_244/Add", "PartitionedCall/model_55/tf.math.add_248/Add", "PartitionedCall/model_55/tf.concat_67/concat/axis"], "attr": {"N": {"i": "4"}, "Tidx": {"type": "DT_INT32"}, "T": {"type": "DT_FLOAT"}}}, {"name": "PartitionedCall/model_55/tf.math.add_249/Add", "op": "_FusedConv2D", "input": ["PartitionedCall/model_55/tf.concat_67/concat", "unknown_34", "unknown_35"], "device": "/device:CPU:0", "attr": {"num_host_args": {"i": "0"}, "data_format": {"s": "TkhXQw=="}, "filter_format": {"s": "SFdJTw=="}, "fused_ops": {"list": {"s": ["Qmlhc0FkZA=="]}}, "num_args": {"i": "1"}, "strides": {"list": {"i": ["1", "1", "1", "1"]}}, "TArgs": {"list": {"type": ["DT_FLOAT"]}}, "padding": {"s": "U0FNRQ=="}, "use_cudnn_on_gpu": {"b": true}, "leakyrelu_alpha": {"f": 0.2}, "epsilon": {"f": 0.0}, "T": {"type": "DT_FLOAT"}, "explicit_paddings": {"list": {}}, "dilations": {"list": {"i": ["1", "1", "1", "1"]}}}}, {"name": "PartitionedCall/model_55/tf.math.sigmoid_186/Sigmoid", "op": "Sigmoid", "input": ["PartitionedCall/model_55/tf.math.add_249/Add"], "attr": {"T": {"type": "DT_FLOAT"}}}, {"name": "PartitionedCall/model_55/tf.math.multiply_816/Mul", "op": "Mul", "input": ["PartitionedCall/model_55/tf.math.add_249/Add", "PartitionedCall/model_55/tf.math.sigmoid_186/Sigmoid"], "attr": {"T": {"type": "DT_FLOAT"}}}, {"name": "PartitionedCall/model_55/tf.compat.v1.pad_24/Pad", "op": "Pad", "input": ["PartitionedCall/model_55/tf.math.multiply_816/Mul", "unknown_36"], "attr": {"Tpaddings": {"type": "DT_INT32"}, "T": {"type": "DT_FLOAT"}}}, {"name": "PartitionedCall/model_55/tf.math.add_250/Add", "op": "_FusedConv2D", "input": ["PartitionedCall/model_55/tf.compat.v1.pad_24/Pad", "unknown_37", "unknown_38"], "device": "/device:CPU:0", "attr": {"num_host_args": {"i": "0"}, "data_format": {"s": "TkhXQw=="}, "filter_format": {"s": "SFdJTw=="}, "strides": {"list": {"i": ["1", "2", "2", "1"]}}, "num_args": {"i": "1"}, "fused_ops": {"list": {"s": ["Qmlhc0FkZA=="]}}, "TArgs": {"list": {"type": ["DT_FLOAT"]}}, "padding": {"s": "VkFMSUQ="}, "use_cudnn_on_gpu": {"b": true}, "leakyrelu_alpha": {"f": 0.2}, "epsilon": {"f": 0.0}, "T": {"type": "DT_FLOAT"}, "explicit_paddings": {"list": {}}, "dilations": {"list": {"i": ["1", "1", "1", "1"]}}}}, {"name": "PartitionedCall/model_55/tf.math.sigmoid_187/Sigmoid", "op": "Sigmoid", "input": ["PartitionedCall/model_55/tf.math.add_250/Add"], "attr": {"T": {"type": "DT_FLOAT"}}}, {"name": "PartitionedCall/model_55/tf.math.multiply_820/Mul", "op": "Mul", "input": ["PartitionedCall/model_55/tf.math.add_250/Add", "PartitionedCall/model_55/tf.math.sigmoid_187/Sigmoid"], "attr": {"T": {"type": "DT_FLOAT"}}}, {"name": "PartitionedCall/model_55/tf.math.add_251/Add", "op": "_FusedConv2D", "input": ["PartitionedCall/model_55/tf.math.multiply_820/Mul", "unknown_39", "unknown_40"], "device": "/device:CPU:0", "attr": {"num_host_args": {"i": "0"}, "data_format": {"s": "TkhXQw=="}, "filter_format": {"s": "SFdJTw=="}, "strides": {"list": {"i": ["1", "1", "1", "1"]}}, "num_args": {"i": "1"}, "fused_ops": {"list": {"s": ["Qmlhc0FkZA=="]}}, "TArgs": {"list": {"type": ["DT_FLOAT"]}}, "padding": {"s": "U0FNRQ=="}, "use_cudnn_on_gpu": {"b": true}, "leakyrelu_alpha": {"f": 0.2}, "epsilon": {"f": 0.0}, "T": {"type": "DT_FLOAT"}, "explicit_paddings": {"list": {}}, "dilations": {"list": {"i": ["1", "1", "1", "1"]}}}}, {"name": "PartitionedCall/model_55/tf.math.sigmoid_188/Sigmoid", "op": "Sigmoid", "input": ["PartitionedCall/model_55/tf.math.add_251/Add"], "attr": {"T": {"type": "DT_FLOAT"}}}, {"name": "PartitionedCall/model_55/tf.math.multiply_824/Mul", "op": "Mul", "input": ["PartitionedCall/model_55/tf.math.add_251/Add", "PartitionedCall/model_55/tf.math.sigmoid_188/Sigmoid"], "attr": {"T": {"type": "DT_FLOAT"}}}, {"name": "PartitionedCall/model_55/tf.strided_slice_64/StridedSlice", "op": "StridedSlice", "input": ["PartitionedCall/model_55/tf.math.multiply_824/Mul", "unknown_51", "unknown_52", "PartitionedCall/model_55/tf.strided_slice_64/ones_like"], "attr": {"shrink_axis_mask": {"i": "0"}, "new_axis_mask": {"i": "0"}, "Index": {"type": "DT_INT64"}, "begin_mask": {"i": "15"}, "end_mask": {"i": "7"}, "T": {"type": "DT_FLOAT"}, "ellipsis_mask": {"i": "0"}}}, {"name": "PartitionedCall/model_55/tf.strided_slice_65/StridedSlice", "op": "StridedSlice", "input": ["PartitionedCall/model_55/tf.math.multiply_824/Mul", "unknown_41", "unknown_42", "PartitionedCall/model_55/tf.strided_slice_65/ones_like"], "attr": {"shrink_axis_mask": {"i": "0"}, "Index": {"type": "DT_INT64"}, "new_axis_mask": {"i": "0"}, "begin_mask": {"i": "7"}, "T": {"type": "DT_FLOAT"}, "end_mask": {"i": "7"}, "ellipsis_mask": {"i": "0"}}}, {"name": "PartitionedCall/model_55/tf.math.add_252/Add", "op": "_FusedConv2D", "input": ["PartitionedCall/model_55/tf.strided_slice_65/StridedSlice", "unknown_43", "unknown_44"], "device": "/device:CPU:0", "attr": {"num_host_args": {"i": "0"}, "data_format": {"s": "TkhXQw=="}, "filter_format": {"s": "SFdJTw=="}, "strides": {"list": {"i": ["1", "1", "1", "1"]}}, "num_args": {"i": "1"}, "fused_ops": {"list": {"s": ["Qmlhc0FkZA=="]}}, "TArgs": {"list": {"type": ["DT_FLOAT"]}}, "padding": {"s": "U0FNRQ=="}, "use_cudnn_on_gpu": {"b": true}, "leakyrelu_alpha": {"f": 0.2}, "epsilon": {"f": 0.0}, "T": {"type": "DT_FLOAT"}, "explicit_paddings": {"list": {}}, "dilations": {"list": {"i": ["1", "1", "1", "1"]}}}}, {"name": "PartitionedCall/model_55/tf.math.sigmoid_189/Sigmoid", "op": "Sigmoid", "input": ["PartitionedCall/model_55/tf.math.add_252/Add"], "attr": {"T": {"type": "DT_FLOAT"}}}, {"name": "PartitionedCall/model_55/tf.math.multiply_828/Mul", "op": "Mul", "input": ["PartitionedCall/model_55/tf.math.add_252/Add", "PartitionedCall/model_55/tf.math.sigmoid_189/Sigmoid"], "attr": {"T": {"type": "DT_FLOAT"}}}, {"name": "PartitionedCall/model_55/tf.math.add_253/Add", "op": "_FusedConv2D", "input": ["PartitionedCall/model_55/tf.math.multiply_828/Mul", "unknown_45", "unknown_46"], "device": "/device:CPU:0", "attr": {"num_host_args": {"i": "0"}, "data_format": {"s": "TkhXQw=="}, "filter_format": {"s": "SFdJTw=="}, "strides": {"list": {"i": ["1", "1", "1", "1"]}}, "num_args": {"i": "1"}, "fused_ops": {"list": {"s": ["Qmlhc0FkZA=="]}}, "TArgs": {"list": {"type": ["DT_FLOAT"]}}, "padding": {"s": "U0FNRQ=="}, "use_cudnn_on_gpu": {"b": true}, "leakyrelu_alpha": {"f": 0.2}, "epsilon": {"f": 0.0}, "T": {"type": "DT_FLOAT"}, "explicit_paddings": {"list": {}}, "dilations": {"list": {"i": ["1", "1", "1", "1"]}}}}, {"name": "PartitionedCall/model_55/tf.math.sigmoid_190/Sigmoid", "op": "Sigmoid", "input": ["PartitionedCall/model_55/tf.math.add_253/Add"], "attr": {"T": {"type": "DT_FLOAT"}}}, {"name": "PartitionedCall/model_55/tf.math.multiply_832/Mul", "op": "Mul", "input": ["PartitionedCall/model_55/tf.math.add_253/Add", "PartitionedCall/model_55/tf.math.sigmoid_190/Sigmoid"], "attr": {"T": {"type": "DT_FLOAT"}}}, {"name": "PartitionedCall/model_55/tf.math.add_255/Add", "op": "AddV2", "input": ["PartitionedCall/model_55/tf.strided_slice_65/StridedSlice", "PartitionedCall/model_55/tf.math.multiply_832/Mul"], "attr": {"T": {"type": "DT_FLOAT"}}}, {"name": "PartitionedCall/model_55/tf.math.add_256/Add", "op": "_FusedConv2D", "input": ["PartitionedCall/model_55/tf.math.add_255/Add", "unknown_47", "unknown_48"], "device": "/device:CPU:0", "attr": {"num_host_args": {"i": "0"}, "data_format": {"s": "TkhXQw=="}, "filter_format": {"s": "SFdJTw=="}, "strides": {"list": {"i": ["1", "1", "1", "1"]}}, "num_args": {"i": "1"}, "fused_ops": {"list": {"s": ["Qmlhc0FkZA=="]}}, "TArgs": {"list": {"type": ["DT_FLOAT"]}}, "padding": {"s": "U0FNRQ=="}, "use_cudnn_on_gpu": {"b": true}, "leakyrelu_alpha": {"f": 0.2}, "epsilon": {"f": 0.0}, "T": {"type": "DT_FLOAT"}, "explicit_paddings": {"list": {}}, "dilations": {"list": {"i": ["1", "1", "1", "1"]}}}}, {"name": "PartitionedCall/model_55/tf.math.sigmoid_191/Sigmoid", "op": "Sigmoid", "input": ["PartitionedCall/model_55/tf.math.add_256/Add"], "attr": {"T": {"type": "DT_FLOAT"}}}, {"name": "PartitionedCall/model_55/tf.math.multiply_838/Mul", "op": "Mul", "input": ["PartitionedCall/model_55/tf.math.add_256/Add", "PartitionedCall/model_55/tf.math.sigmoid_191/Sigmoid"], "attr": {"T": {"type": "DT_FLOAT"}}}, {"name": "PartitionedCall/model_55/tf.math.add_257/Add", "op": "_FusedConv2D", "input": ["PartitionedCall/model_55/tf.math.multiply_838/Mul", "unknown_49", "unknown_50"], "device": "/device:CPU:0", "attr": {"num_host_args": {"i": "0"}, "data_format": {"s": "TkhXQw=="}, "filter_format": {"s": "SFdJTw=="}, "strides": {"list": {"i": ["1", "1", "1", "1"]}}, "num_args": {"i": "1"}, "fused_ops": {"list": {"s": ["Qmlhc0FkZA=="]}}, "TArgs": {"list": {"type": ["DT_FLOAT"]}}, "padding": {"s": "U0FNRQ=="}, "use_cudnn_on_gpu": {"b": true}, "leakyrelu_alpha": {"f": 0.2}, "epsilon": {"f": 0.0}, "T": {"type": "DT_FLOAT"}, "explicit_paddings": {"list": {}}, "dilations": {"list": {"i": ["1", "1", "1", "1"]}}}}, {"name": "PartitionedCall/model_55/tf.math.sigmoid_192/Sigmoid", "op": "Sigmoid", "input": ["PartitionedCall/model_55/tf.math.add_257/Add"], "attr": {"T": {"type": "DT_FLOAT"}}}, {"name": "PartitionedCall/model_55/tf.math.multiply_842/Mul", "op": "Mul", "input": ["PartitionedCall/model_55/tf.math.add_257/Add", "PartitionedCall/model_55/tf.math.sigmoid_192/Sigmoid"], "attr": {"T": {"type": "DT_FLOAT"}}}, {"name": "PartitionedCall/model_55/tf.math.add_259/Add", "op": "AddV2", "input": ["PartitionedCall/model_55/tf.math.add_255/Add", "PartitionedCall/model_55/tf.math.multiply_842/Mul"], "attr": {"T": {"type": "DT_FLOAT"}}}, {"name": "PartitionedCall/model_55/tf.concat_68/concat", "op": "ConcatV2", "input": ["PartitionedCall/model_55/tf.strided_slice_64/StridedSlice", "PartitionedCall/model_55/tf.strided_slice_65/StridedSlice", "PartitionedCall/model_55/tf.math.add_255/Add", "PartitionedCall/model_55/tf.math.add_259/Add", "PartitionedCall/model_55/tf.concat_68/concat/axis"], "attr": {"N": {"i": "4"}, "Tidx": {"type": "DT_INT32"}, "T": {"type": "DT_FLOAT"}}}, {"name": "PartitionedCall/model_55/tf.math.add_260/Add", "op": "_FusedConv2D", "input": ["PartitionedCall/model_55/tf.concat_68/concat", "unknown_53", "unknown_54"], "device": "/device:CPU:0", "attr": {"num_host_args": {"i": "0"}, "data_format": {"s": "TkhXQw=="}, "filter_format": {"s": "SFdJTw=="}, "strides": {"list": {"i": ["1", "1", "1", "1"]}}, "num_args": {"i": "1"}, "fused_ops": {"list": {"s": ["Qmlhc0FkZA=="]}}, "TArgs": {"list": {"type": ["DT_FLOAT"]}}, "padding": {"s": "U0FNRQ=="}, "use_cudnn_on_gpu": {"b": true}, "leakyrelu_alpha": {"f": 0.2}, "epsilon": {"f": 0.0}, "T": {"type": "DT_FLOAT"}, "explicit_paddings": {"list": {}}, "dilations": {"list": {"i": ["1", "1", "1", "1"]}}}}, {"name": "PartitionedCall/model_55/tf.math.sigmoid_193/Sigmoid", "op": "Sigmoid", "input": ["PartitionedCall/model_55/tf.math.add_260/Add"], "attr": {"T": {"type": "DT_FLOAT"}}}, {"name": "PartitionedCall/model_55/tf.math.multiply_848/Mul", "op": "Mul", "input": ["PartitionedCall/model_55/tf.math.add_260/Add", "PartitionedCall/model_55/tf.math.sigmoid_193/Sigmoid"], "attr": {"T": {"type": "DT_FLOAT"}}}, {"name": "PartitionedCall/model_55/tf.compat.v1.pad_25/Pad", "op": "Pad", "input": ["PartitionedCall/model_55/tf.math.multiply_848/Mul", "unknown_55"], "attr": {"Tpaddings": {"type": "DT_INT32"}, "T": {"type": "DT_FLOAT"}}}, {"name": "PartitionedCall/model_55/tf.math.add_261/Add", "op": "_FusedConv2D", "input": ["PartitionedCall/model_55/tf.compat.v1.pad_25/Pad", "unknown_56", "unknown_57"], "device": "/device:CPU:0", "attr": {"num_host_args": {"i": "0"}, "data_format": {"s": "TkhXQw=="}, "filter_format": {"s": "SFdJTw=="}, "strides": {"list": {"i": ["1", "2", "2", "1"]}}, "num_args": {"i": "1"}, "fused_ops": {"list": {"s": ["Qmlhc0FkZA=="]}}, "TArgs": {"list": {"type": ["DT_FLOAT"]}}, "padding": {"s": "VkFMSUQ="}, "use_cudnn_on_gpu": {"b": true}, "leakyrelu_alpha": {"f": 0.2}, "epsilon": {"f": 0.0}, "T": {"type": "DT_FLOAT"}, "explicit_paddings": {"list": {}}, "dilations": {"list": {"i": ["1", "1", "1", "1"]}}}}, {"name": "PartitionedCall/model_55/tf.math.sigmoid_194/Sigmoid", "op": "Sigmoid", "input": ["PartitionedCall/model_55/tf.math.add_261/Add"], "attr": {"T": {"type": "DT_FLOAT"}}}, {"name": "PartitionedCall/model_55/tf.math.multiply_852/Mul", "op": "Mul", "input": ["PartitionedCall/model_55/tf.math.add_261/Add", "PartitionedCall/model_55/tf.math.sigmoid_194/Sigmoid"], "attr": {"T": {"type": "DT_FLOAT"}}}, {"name": "PartitionedCall/model_55/tf.math.add_262/Add", "op": "_FusedConv2D", "input": ["PartitionedCall/model_55/tf.math.multiply_852/Mul", "unknown_58", "unknown_59"], "device": "/device:CPU:0", "attr": {"num_host_args": {"i": "0"}, "data_format": {"s": "TkhXQw=="}, "filter_format": {"s": "SFdJTw=="}, "strides": {"list": {"i": ["1", "1", "1", "1"]}}, "num_args": {"i": "1"}, "fused_ops": {"list": {"s": ["Qmlhc0FkZA=="]}}, "TArgs": {"list": {"type": ["DT_FLOAT"]}}, "padding": {"s": "U0FNRQ=="}, "use_cudnn_on_gpu": {"b": true}, "leakyrelu_alpha": {"f": 0.2}, "epsilon": {"f": 0.0}, "T": {"type": "DT_FLOAT"}, "explicit_paddings": {"list": {}}, "dilations": {"list": {"i": ["1", "1", "1", "1"]}}}}, {"name": "PartitionedCall/model_55/tf.math.sigmoid_195/Sigmoid", "op": "Sigmoid", "input": ["PartitionedCall/model_55/tf.math.add_262/Add"], "attr": {"T": {"type": "DT_FLOAT"}}}, {"name": "PartitionedCall/model_55/tf.math.multiply_856/Mul", "op": "Mul", "input": ["PartitionedCall/model_55/tf.math.add_262/Add", "PartitionedCall/model_55/tf.math.sigmoid_195/Sigmoid"], "attr": {"T": {"type": "DT_FLOAT"}}}, {"name": "PartitionedCall/model_55/tf.strided_slice_66/StridedSlice", "op": "StridedSlice", "input": ["PartitionedCall/model_55/tf.math.multiply_856/Mul", "unknown_66", "unknown_67", "PartitionedCall/model_55/tf.strided_slice_66/ones_like"], "attr": {"shrink_axis_mask": {"i": "0"}, "Index": {"type": "DT_INT64"}, "new_axis_mask": {"i": "0"}, "begin_mask": {"i": "15"}, "T": {"type": "DT_FLOAT"}, "end_mask": {"i": "7"}, "ellipsis_mask": {"i": "0"}}}, {"name": "PartitionedCall/model_55/tf.strided_slice_67/StridedSlice", "op": "StridedSlice", "input": ["PartitionedCall/model_55/tf.math.multiply_856/Mul", "unknown_60", "unknown_61", "PartitionedCall/model_55/tf.strided_slice_67/ones_like"], "attr": {"shrink_axis_mask": {"i": "0"}, "new_axis_mask": {"i": "0"}, "Index": {"type": "DT_INT64"}, "begin_mask": {"i": "7"}, "T": {"type": "DT_FLOAT"}, "end_mask": {"i": "7"}, "ellipsis_mask": {"i": "0"}}}, {"name": "PartitionedCall/model_55/tf.math.add_263/Add", "op": "_FusedConv2D", "input": ["PartitionedCall/model_55/tf.strided_slice_67/StridedSlice", "unknown_62", "unknown_63"], "device": "/device:CPU:0", "attr": {"num_host_args": {"i": "0"}, "data_format": {"s": "TkhXQw=="}, "filter_format": {"s": "SFdJTw=="}, "fused_ops": {"list": {"s": ["Qmlhc0FkZA=="]}}, "num_args": {"i": "1"}, "strides": {"list": {"i": ["1", "1", "1", "1"]}}, "TArgs": {"list": {"type": ["DT_FLOAT"]}}, "padding": {"s": "U0FNRQ=="}, "use_cudnn_on_gpu": {"b": true}, "leakyrelu_alpha": {"f": 0.2}, "epsilon": {"f": 0.0}, "T": {"type": "DT_FLOAT"}, "explicit_paddings": {"list": {}}, "dilations": {"list": {"i": ["1", "1", "1", "1"]}}}}, {"name": "PartitionedCall/model_55/tf.math.sigmoid_196/Sigmoid", "op": "Sigmoid", "input": ["PartitionedCall/model_55/tf.math.add_263/Add"], "attr": {"T": {"type": "DT_FLOAT"}}}, {"name": "PartitionedCall/model_55/tf.math.multiply_860/Mul", "op": "Mul", "input": ["PartitionedCall/model_55/tf.math.add_263/Add", "PartitionedCall/model_55/tf.math.sigmoid_196/Sigmoid"], "attr": {"T": {"type": "DT_FLOAT"}}}, {"name": "PartitionedCall/model_55/tf.math.add_264/Add", "op": "_FusedConv2D", "input": ["PartitionedCall/model_55/tf.math.multiply_860/Mul", "unknown_64", "unknown_65"], "device": "/device:CPU:0", "attr": {"num_host_args": {"i": "0"}, "data_format": {"s": "TkhXQw=="}, "filter_format": {"s": "SFdJTw=="}, "strides": {"list": {"i": ["1", "1", "1", "1"]}}, "num_args": {"i": "1"}, "fused_ops": {"list": {"s": ["Qmlhc0FkZA=="]}}, "TArgs": {"list": {"type": ["DT_FLOAT"]}}, "padding": {"s": "U0FNRQ=="}, "use_cudnn_on_gpu": {"b": true}, "leakyrelu_alpha": {"f": 0.2}, "epsilon": {"f": 0.0}, "T": {"type": "DT_FLOAT"}, "explicit_paddings": {"list": {}}, "dilations": {"list": {"i": ["1", "1", "1", "1"]}}}}, {"name": "PartitionedCall/model_55/tf.math.sigmoid_197/Sigmoid", "op": "Sigmoid", "input": ["PartitionedCall/model_55/tf.math.add_264/Add"], "attr": {"T": {"type": "DT_FLOAT"}}}, {"name": "PartitionedCall/model_55/tf.math.multiply_864/Mul", "op": "Mul", "input": ["PartitionedCall/model_55/tf.math.add_264/Add", "PartitionedCall/model_55/tf.math.sigmoid_197/Sigmoid"], "attr": {"T": {"type": "DT_FLOAT"}}}, {"name": "PartitionedCall/model_55/tf.math.add_266/Add", "op": "AddV2", "input": ["PartitionedCall/model_55/tf.strided_slice_67/StridedSlice", "PartitionedCall/model_55/tf.math.multiply_864/Mul"], "attr": {"T": {"type": "DT_FLOAT"}}}, {"name": "PartitionedCall/model_55/tf.concat_69/concat", "op": "ConcatV2", "input": ["PartitionedCall/model_55/tf.strided_slice_66/StridedSlice", "PartitionedCall/model_55/tf.strided_slice_67/StridedSlice", "PartitionedCall/model_55/tf.math.add_266/Add", "PartitionedCall/model_55/tf.concat_69/concat/axis"], "attr": {"N": {"i": "3"}, "T": {"type": "DT_FLOAT"}, "Tidx": {"type": "DT_INT32"}}}, {"name": "PartitionedCall/model_55/tf.math.add_267/Add", "op": "_FusedConv2D", "input": ["PartitionedCall/model_55/tf.concat_69/concat", "unknown_68", "unknown_69"], "device": "/device:CPU:0", "attr": {"num_host_args": {"i": "0"}, "data_format": {"s": "TkhXQw=="}, "filter_format": {"s": "SFdJTw=="}, "strides": {"list": {"i": ["1", "1", "1", "1"]}}, "num_args": {"i": "1"}, "fused_ops": {"list": {"s": ["Qmlhc0FkZA=="]}}, "TArgs": {"list": {"type": ["DT_FLOAT"]}}, "padding": {"s": "U0FNRQ=="}, "use_cudnn_on_gpu": {"b": true}, "leakyrelu_alpha": {"f": 0.2}, "epsilon": {"f": 0.0}, "T": {"type": "DT_FLOAT"}, "explicit_paddings": {"list": {}}, "dilations": {"list": {"i": ["1", "1", "1", "1"]}}}}, {"name": "PartitionedCall/model_55/tf.math.sigmoid_198/Sigmoid", "op": "Sigmoid", "input": ["PartitionedCall/model_55/tf.math.add_267/Add"], "attr": {"T": {"type": "DT_FLOAT"}}}, {"name": "PartitionedCall/model_55/tf.math.multiply_870/Mul", "op": "Mul", "input": ["PartitionedCall/model_55/tf.math.add_267/Add", "PartitionedCall/model_55/tf.math.sigmoid_198/Sigmoid"], "attr": {"T": {"type": "DT_FLOAT"}}}, {"name": "PartitionedCall/model_55/tf.math.add_268/Add", "op": "_FusedConv2D", "input": ["PartitionedCall/model_55/tf.math.multiply_870/Mul", "unknown_70", "unknown_71"], "device": "/device:CPU:0", "attr": {"num_host_args": {"i": "0"}, "data_format": {"s": "TkhXQw=="}, "filter_format": {"s": "SFdJTw=="}, "strides": {"list": {"i": ["1", "1", "1", "1"]}}, "num_args": {"i": "1"}, "fused_ops": {"list": {"s": ["Qmlhc0FkZA=="]}}, "TArgs": {"list": {"type": ["DT_FLOAT"]}}, "padding": {"s": "U0FNRQ=="}, "use_cudnn_on_gpu": {"b": true}, "leakyrelu_alpha": {"f": 0.2}, "epsilon": {"f": 0.0}, "T": {"type": "DT_FLOAT"}, "explicit_paddings": {"list": {}}, "dilations": {"list": {"i": ["1", "1", "1", "1"]}}}}, {"name": "PartitionedCall/model_55/tf.math.sigmoid_199/Sigmoid", "op": "Sigmoid", "input": ["PartitionedCall/model_55/tf.math.add_268/Add"], "attr": {"T": {"type": "DT_FLOAT"}}}, {"name": "PartitionedCall/model_55/tf.math.multiply_874/Mul", "op": "Mul", "input": ["PartitionedCall/model_55/tf.math.add_268/Add", "PartitionedCall/model_55/tf.math.sigmoid_199/Sigmoid"], "attr": {"T": {"type": "DT_FLOAT"}}}, {"name": "PartitionedCall/model_55/tf.compat.v1.nn.pool_9/max_pool", "op": "MaxPool", "input": ["PartitionedCall/model_55/tf.math.multiply_874/Mul"], "attr": {"padding": {"s": "U0FNRQ=="}, "data_format": {"s": "TkhXQw=="}, "T": {"type": "DT_FLOAT"}, "explicit_paddings": {"list": {}}, "ksize": {"list": {"i": ["1", "5", "5", "1"]}}, "strides": {"list": {"i": ["1", "1", "1", "1"]}}}}, {"name": "PartitionedCall/model_55/tf.compat.v1.nn.pool_10/max_pool", "op": "MaxPool", "input": ["PartitionedCall/model_55/tf.compat.v1.nn.pool_9/max_pool"], "attr": {"ksize": {"list": {"i": ["1", "5", "5", "1"]}}, "data_format": {"s": "TkhXQw=="}, "T": {"type": "DT_FLOAT"}, "explicit_paddings": {"list": {}}, "padding": {"s": "U0FNRQ=="}, "strides": {"list": {"i": ["1", "1", "1", "1"]}}}}, {"name": "PartitionedCall/model_55/tf.compat.v1.nn.pool_11/max_pool", "op": "MaxPool", "input": ["PartitionedCall/model_55/tf.compat.v1.nn.pool_10/max_pool"], "attr": {"ksize": {"list": {"i": ["1", "5", "5", "1"]}}, "data_format": {"s": "TkhXQw=="}, "T": {"type": "DT_FLOAT"}, "explicit_paddings": {"list": {}}, "padding": {"s": "U0FNRQ=="}, "strides": {"list": {"i": ["1", "1", "1", "1"]}}}}, {"name": "PartitionedCall/model_55/tf.concat_70/concat", "op": "ConcatV2", "input": ["PartitionedCall/model_55/tf.math.multiply_874/Mul", "PartitionedCall/model_55/tf.compat.v1.nn.pool_9/max_pool", "PartitionedCall/model_55/tf.compat.v1.nn.pool_10/max_pool", "PartitionedCall/model_55/tf.compat.v1.nn.pool_11/max_pool", "PartitionedCall/model_55/tf.concat_70/concat/axis"], "attr": {"N": {"i": "4"}, "T": {"type": "DT_FLOAT"}, "Tidx": {"type": "DT_INT32"}}}, {"name": "PartitionedCall/model_55/tf.math.add_269/Add", "op": "_FusedConv2D", "input": ["PartitionedCall/model_55/tf.concat_70/concat", "unknown_72", "unknown_73"], "device": "/device:CPU:0", "attr": {"num_host_args": {"i": "0"}, "data_format": {"s": "TkhXQw=="}, "filter_format": {"s": "SFdJTw=="}, "fused_ops": {"list": {"s": ["Qmlhc0FkZA=="]}}, "num_args": {"i": "1"}, "strides": {"list": {"i": ["1", "1", "1", "1"]}}, "TArgs": {"list": {"type": ["DT_FLOAT"]}}, "padding": {"s": "U0FNRQ=="}, "use_cudnn_on_gpu": {"b": true}, "leakyrelu_alpha": {"f": 0.2}, "epsilon": {"f": 0.0}, "T": {"type": "DT_FLOAT"}, "explicit_paddings": {"list": {}}, "dilations": {"list": {"i": ["1", "1", "1", "1"]}}}}, {"name": "PartitionedCall/model_55/tf.math.sigmoid_200/Sigmoid", "op": "Sigmoid", "input": ["PartitionedCall/model_55/tf.math.add_269/Add"], "attr": {"T": {"type": "DT_FLOAT"}}}, {"name": "PartitionedCall/model_55/tf.math.multiply_878/Mul", "op": "Mul", "input": ["PartitionedCall/model_55/tf.math.add_269/Add", "PartitionedCall/model_55/tf.math.sigmoid_200/Sigmoid"], "attr": {"T": {"type": "DT_FLOAT"}}}, {"name": "PartitionedCall/model_55/tf.image.resize_6/resize/ResizeNearestNeighbor", "op": "ResizeNearestNeighbor", "input": ["PartitionedCall/model_55/tf.math.multiply_878/Mul", "PartitionedCall/model_55/tf.image.resize_6/resize/size"], "attr": {"T": {"type": "DT_FLOAT"}, "align_corners": {"b": false}, "half_pixel_centers": {"b": true}}}, {"name": "PartitionedCall/model_55/tf.concat_71/concat", "op": "ConcatV2", "input": ["PartitionedCall/model_55/tf.image.resize_6/resize/ResizeNearestNeighbor", "PartitionedCall/model_55/tf.math.multiply_848/Mul", "PartitionedCall/model_55/tf.concat_71/concat/axis"], "attr": {"N": {"i": "2"}, "T": {"type": "DT_FLOAT"}, "Tidx": {"type": "DT_INT32"}}}, {"name": "PartitionedCall/model_55/tf.math.add_270/Add", "op": "_FusedConv2D", "input": ["PartitionedCall/model_55/tf.concat_71/concat", "unknown_74", "unknown_75"], "device": "/device:CPU:0", "attr": {"num_host_args": {"i": "0"}, "data_format": {"s": "TkhXQw=="}, "filter_format": {"s": "SFdJTw=="}, "strides": {"list": {"i": ["1", "1", "1", "1"]}}, "num_args": {"i": "1"}, "fused_ops": {"list": {"s": ["Qmlhc0FkZA=="]}}, "TArgs": {"list": {"type": ["DT_FLOAT"]}}, "padding": {"s": "U0FNRQ=="}, "use_cudnn_on_gpu": {"b": true}, "leakyrelu_alpha": {"f": 0.2}, "epsilon": {"f": 0.0}, "T": {"type": "DT_FLOAT"}, "explicit_paddings": {"list": {}}, "dilations": {"list": {"i": ["1", "1", "1", "1"]}}}}, {"name": "PartitionedCall/model_55/tf.math.sigmoid_201/Sigmoid", "op": "Sigmoid", "input": ["PartitionedCall/model_55/tf.math.add_270/Add"], "attr": {"T": {"type": "DT_FLOAT"}}}, {"name": "PartitionedCall/model_55/tf.math.multiply_882/Mul", "op": "Mul", "input": ["PartitionedCall/model_55/tf.math.add_270/Add", "PartitionedCall/model_55/tf.math.sigmoid_201/Sigmoid"], "attr": {"T": {"type": "DT_FLOAT"}}}, {"name": "PartitionedCall/model_55/tf.strided_slice_68/StridedSlice", "op": "StridedSlice", "input": ["PartitionedCall/model_55/tf.math.multiply_882/Mul", "unknown_82", "unknown_83", "PartitionedCall/model_55/tf.strided_slice_68/ones_like"], "attr": {"shrink_axis_mask": {"i": "0"}, "new_axis_mask": {"i": "0"}, "Index": {"type": "DT_INT64"}, "begin_mask": {"i": "15"}, "end_mask": {"i": "7"}, "T": {"type": "DT_FLOAT"}, "ellipsis_mask": {"i": "0"}}}, {"name": "PartitionedCall/model_55/tf.strided_slice_69/StridedSlice", "op": "StridedSlice", "input": ["PartitionedCall/model_55/tf.math.multiply_882/Mul", "unknown_76", "unknown_77", "PartitionedCall/model_55/tf.strided_slice_69/ones_like"], "attr": {"shrink_axis_mask": {"i": "0"}, "new_axis_mask": {"i": "0"}, "Index": {"type": "DT_INT64"}, "begin_mask": {"i": "7"}, "T": {"type": "DT_FLOAT"}, "end_mask": {"i": "7"}, "ellipsis_mask": {"i": "0"}}}, {"name": "PartitionedCall/model_55/tf.math.add_271/Add", "op": "_FusedConv2D", "input": ["PartitionedCall/model_55/tf.strided_slice_69/StridedSlice", "unknown_78", "unknown_79"], "device": "/device:CPU:0", "attr": {"num_host_args": {"i": "0"}, "data_format": {"s": "TkhXQw=="}, "filter_format": {"s": "SFdJTw=="}, "fused_ops": {"list": {"s": ["Qmlhc0FkZA=="]}}, "num_args": {"i": "1"}, "strides": {"list": {"i": ["1", "1", "1", "1"]}}, "TArgs": {"list": {"type": ["DT_FLOAT"]}}, "padding": {"s": "U0FNRQ=="}, "use_cudnn_on_gpu": {"b": true}, "leakyrelu_alpha": {"f": 0.2}, "epsilon": {"f": 0.0}, "T": {"type": "DT_FLOAT"}, "explicit_paddings": {"list": {}}, "dilations": {"list": {"i": ["1", "1", "1", "1"]}}}}, {"name": "PartitionedCall/model_55/tf.math.sigmoid_202/Sigmoid", "op": "Sigmoid", "input": ["PartitionedCall/model_55/tf.math.add_271/Add"], "attr": {"T": {"type": "DT_FLOAT"}}}, {"name": "PartitionedCall/model_55/tf.math.multiply_886/Mul", "op": "Mul", "input": ["PartitionedCall/model_55/tf.math.add_271/Add", "PartitionedCall/model_55/tf.math.sigmoid_202/Sigmoid"], "attr": {"T": {"type": "DT_FLOAT"}}}, {"name": "PartitionedCall/model_55/tf.math.add_272/Add", "op": "_FusedConv2D", "input": ["PartitionedCall/model_55/tf.math.multiply_886/Mul", "unknown_80", "unknown_81"], "device": "/device:CPU:0", "attr": {"num_host_args": {"i": "0"}, "data_format": {"s": "TkhXQw=="}, "filter_format": {"s": "SFdJTw=="}, "fused_ops": {"list": {"s": ["Qmlhc0FkZA=="]}}, "num_args": {"i": "1"}, "strides": {"list": {"i": ["1", "1", "1", "1"]}}, "TArgs": {"list": {"type": ["DT_FLOAT"]}}, "padding": {"s": "U0FNRQ=="}, "use_cudnn_on_gpu": {"b": true}, "leakyrelu_alpha": {"f": 0.2}, "epsilon": {"f": 0.0}, "T": {"type": "DT_FLOAT"}, "explicit_paddings": {"list": {}}, "dilations": {"list": {"i": ["1", "1", "1", "1"]}}}}, {"name": "PartitionedCall/model_55/tf.math.sigmoid_203/Sigmoid", "op": "Sigmoid", "input": ["PartitionedCall/model_55/tf.math.add_272/Add"], "attr": {"T": {"type": "DT_FLOAT"}}}, {"name": "PartitionedCall/model_55/tf.math.multiply_890/Mul", "op": "Mul", "input": ["PartitionedCall/model_55/tf.math.add_272/Add", "PartitionedCall/model_55/tf.math.sigmoid_203/Sigmoid"], "attr": {"T": {"type": "DT_FLOAT"}}}, {"name": "PartitionedCall/model_55/tf.concat_72/concat", "op": "ConcatV2", "input": ["PartitionedCall/model_55/tf.strided_slice_68/StridedSlice", "PartitionedCall/model_55/tf.strided_slice_69/StridedSlice", "PartitionedCall/model_55/tf.math.multiply_890/Mul", "PartitionedCall/model_55/tf.concat_72/concat/axis"], "attr": {"N": {"i": "3"}, "Tidx": {"type": "DT_INT32"}, "T": {"type": "DT_FLOAT"}}}, {"name": "PartitionedCall/model_55/tf.math.add_273/Add", "op": "_FusedConv2D", "input": ["PartitionedCall/model_55/tf.concat_72/concat", "unknown_84", "unknown_85"], "device": "/device:CPU:0", "attr": {"num_host_args": {"i": "0"}, "data_format": {"s": "TkhXQw=="}, "filter_format": {"s": "SFdJTw=="}, "fused_ops": {"list": {"s": ["Qmlhc0FkZA=="]}}, "num_args": {"i": "1"}, "strides": {"list": {"i": ["1", "1", "1", "1"]}}, "TArgs": {"list": {"type": ["DT_FLOAT"]}}, "padding": {"s": "U0FNRQ=="}, "use_cudnn_on_gpu": {"b": true}, "leakyrelu_alpha": {"f": 0.2}, "epsilon": {"f": 0.0}, "T": {"type": "DT_FLOAT"}, "explicit_paddings": {"list": {}}, "dilations": {"list": {"i": ["1", "1", "1", "1"]}}}}, {"name": "PartitionedCall/model_55/tf.math.sigmoid_204/Sigmoid", "op": "Sigmoid", "input": ["PartitionedCall/model_55/tf.math.add_273/Add"], "attr": {"T": {"type": "DT_FLOAT"}}}, {"name": "PartitionedCall/model_55/tf.math.multiply_894/Mul", "op": "Mul", "input": ["PartitionedCall/model_55/tf.math.add_273/Add", "PartitionedCall/model_55/tf.math.sigmoid_204/Sigmoid"], "attr": {"T": {"type": "DT_FLOAT"}}}, {"name": "PartitionedCall/model_55/tf.image.resize_7/resize/ResizeNearestNeighbor", "op": "ResizeNearestNeighbor", "input": ["PartitionedCall/model_55/tf.math.multiply_894/Mul", "PartitionedCall/model_55/tf.image.resize_7/resize/size"], "attr": {"T": {"type": "DT_FLOAT"}, "align_corners": {"b": false}, "half_pixel_centers": {"b": true}}}, {"name": "PartitionedCall/model_55/tf.concat_73/concat", "op": "ConcatV2", "input": ["PartitionedCall/model_55/tf.image.resize_7/resize/ResizeNearestNeighbor", "PartitionedCall/model_55/tf.math.multiply_816/Mul", "PartitionedCall/model_55/tf.concat_73/concat/axis"], "attr": {"N": {"i": "2"}, "Tidx": {"type": "DT_INT32"}, "T": {"type": "DT_FLOAT"}}}, {"name": "PartitionedCall/model_55/tf.math.add_274/Add", "op": "_FusedConv2D", "input": ["PartitionedCall/model_55/tf.concat_73/concat", "unknown_86", "unknown_87"], "device": "/device:CPU:0", "attr": {"num_host_args": {"i": "0"}, "data_format": {"s": "TkhXQw=="}, "filter_format": {"s": "SFdJTw=="}, "strides": {"list": {"i": ["1", "1", "1", "1"]}}, "num_args": {"i": "1"}, "fused_ops": {"list": {"s": ["Qmlhc0FkZA=="]}}, "TArgs": {"list": {"type": ["DT_FLOAT"]}}, "padding": {"s": "U0FNRQ=="}, "use_cudnn_on_gpu": {"b": true}, "leakyrelu_alpha": {"f": 0.2}, "epsilon": {"f": 0.0}, "T": {"type": "DT_FLOAT"}, "explicit_paddings": {"list": {}}, "dilations": {"list": {"i": ["1", "1", "1", "1"]}}}}, {"name": "PartitionedCall/model_55/tf.math.sigmoid_205/Sigmoid", "op": "Sigmoid", "input": ["PartitionedCall/model_55/tf.math.add_274/Add"], "attr": {"T": {"type": "DT_FLOAT"}}}, {"name": "PartitionedCall/model_55/tf.math.multiply_898/Mul", "op": "Mul", "input": ["PartitionedCall/model_55/tf.math.add_274/Add", "PartitionedCall/model_55/tf.math.sigmoid_205/Sigmoid"], "attr": {"T": {"type": "DT_FLOAT"}}}, {"name": "PartitionedCall/model_55/tf.strided_slice_70/StridedSlice", "op": "StridedSlice", "input": ["PartitionedCall/model_55/tf.math.multiply_898/Mul", "unknown_94", "unknown_95", "PartitionedCall/model_55/tf.strided_slice_70/ones_like"], "attr": {"shrink_axis_mask": {"i": "0"}, "Index": {"type": "DT_INT64"}, "new_axis_mask": {"i": "0"}, "begin_mask": {"i": "15"}, "end_mask": {"i": "7"}, "T": {"type": "DT_FLOAT"}, "ellipsis_mask": {"i": "0"}}}, {"name": "PartitionedCall/model_55/tf.strided_slice_71/StridedSlice", "op": "StridedSlice", "input": ["PartitionedCall/model_55/tf.math.multiply_898/Mul", "unknown_88", "unknown_89", "PartitionedCall/model_55/tf.strided_slice_71/ones_like"], "attr": {"shrink_axis_mask": {"i": "0"}, "Index": {"type": "DT_INT64"}, "new_axis_mask": {"i": "0"}, "begin_mask": {"i": "7"}, "end_mask": {"i": "7"}, "T": {"type": "DT_FLOAT"}, "ellipsis_mask": {"i": "0"}}}, {"name": "PartitionedCall/model_55/tf.math.add_275/Add", "op": "_FusedConv2D", "input": ["PartitionedCall/model_55/tf.strided_slice_71/StridedSlice", "unknown_90", "unknown_91"], "device": "/device:CPU:0", "attr": {"num_host_args": {"i": "0"}, "data_format": {"s": "TkhXQw=="}, "filter_format": {"s": "SFdJTw=="}, "fused_ops": {"list": {"s": ["Qmlhc0FkZA=="]}}, "num_args": {"i": "1"}, "strides": {"list": {"i": ["1", "1", "1", "1"]}}, "TArgs": {"list": {"type": ["DT_FLOAT"]}}, "padding": {"s": "U0FNRQ=="}, "use_cudnn_on_gpu": {"b": true}, "leakyrelu_alpha": {"f": 0.2}, "epsilon": {"f": 0.0}, "T": {"type": "DT_FLOAT"}, "explicit_paddings": {"list": {}}, "dilations": {"list": {"i": ["1", "1", "1", "1"]}}}}, {"name": "PartitionedCall/model_55/tf.math.sigmoid_206/Sigmoid", "op": "Sigmoid", "input": ["PartitionedCall/model_55/tf.math.add_275/Add"], "attr": {"T": {"type": "DT_FLOAT"}}}, {"name": "PartitionedCall/model_55/tf.math.multiply_902/Mul", "op": "Mul", "input": ["PartitionedCall/model_55/tf.math.add_275/Add", "PartitionedCall/model_55/tf.math.sigmoid_206/Sigmoid"], "attr": {"T": {"type": "DT_FLOAT"}}}, {"name": "PartitionedCall/model_55/tf.math.add_276/Add", "op": "_FusedConv2D", "input": ["PartitionedCall/model_55/tf.math.multiply_902/Mul", "unknown_92", "unknown_93"], "device": "/device:CPU:0", "attr": {"num_host_args": {"i": "0"}, "data_format": {"s": "TkhXQw=="}, "filter_format": {"s": "SFdJTw=="}, "strides": {"list": {"i": ["1", "1", "1", "1"]}}, "num_args": {"i": "1"}, "fused_ops": {"list": {"s": ["Qmlhc0FkZA=="]}}, "TArgs": {"list": {"type": ["DT_FLOAT"]}}, "padding": {"s": "U0FNRQ=="}, "use_cudnn_on_gpu": {"b": true}, "leakyrelu_alpha": {"f": 0.2}, "epsilon": {"f": 0.0}, "T": {"type": "DT_FLOAT"}, "explicit_paddings": {"list": {}}, "dilations": {"list": {"i": ["1", "1", "1", "1"]}}}}, {"name": "PartitionedCall/model_55/tf.math.sigmoid_207/Sigmoid", "op": "Sigmoid", "input": ["PartitionedCall/model_55/tf.math.add_276/Add"], "attr": {"T": {"type": "DT_FLOAT"}}}, {"name": "PartitionedCall/model_55/tf.math.multiply_906/Mul", "op": "Mul", "input": ["PartitionedCall/model_55/tf.math.add_276/Add", "PartitionedCall/model_55/tf.math.sigmoid_207/Sigmoid"], "attr": {"T": {"type": "DT_FLOAT"}}}, {"name": "PartitionedCall/model_55/tf.concat_74/concat", "op": "ConcatV2", "input": ["PartitionedCall/model_55/tf.strided_slice_70/StridedSlice", "PartitionedCall/model_55/tf.strided_slice_71/StridedSlice", "PartitionedCall/model_55/tf.math.multiply_906/Mul", "PartitionedCall/model_55/tf.concat_74/concat/axis"], "attr": {"N": {"i": "3"}, "T": {"type": "DT_FLOAT"}, "Tidx": {"type": "DT_INT32"}}}, {"name": "PartitionedCall/model_55/tf.math.add_277/Add", "op": "_FusedConv2D", "input": ["PartitionedCall/model_55/tf.concat_74/concat", "unknown_96", "unknown_97"], "device": "/device:CPU:0", "attr": {"num_host_args": {"i": "0"}, "data_format": {"s": "TkhXQw=="}, "filter_format": {"s": "SFdJTw=="}, "strides": {"list": {"i": ["1", "1", "1", "1"]}}, "num_args": {"i": "1"}, "fused_ops": {"list": {"s": ["Qmlhc0FkZA=="]}}, "TArgs": {"list": {"type": ["DT_FLOAT"]}}, "padding": {"s": "U0FNRQ=="}, "use_cudnn_on_gpu": {"b": true}, "leakyrelu_alpha": {"f": 0.2}, "epsilon": {"f": 0.0}, "T": {"type": "DT_FLOAT"}, "explicit_paddings": {"list": {}}, "dilations": {"list": {"i": ["1", "1", "1", "1"]}}}}, {"name": "PartitionedCall/model_55/tf.math.sigmoid_208/Sigmoid", "op": "Sigmoid", "input": ["PartitionedCall/model_55/tf.math.add_277/Add"], "attr": {"T": {"type": "DT_FLOAT"}}}, {"name": "PartitionedCall/model_55/tf.math.multiply_910/Mul", "op": "Mul", "input": ["PartitionedCall/model_55/tf.math.add_277/Add", "PartitionedCall/model_55/tf.math.sigmoid_208/Sigmoid"], "attr": {"T": {"type": "DT_FLOAT"}}}, {"name": "PartitionedCall/model_55/tf.math.add_279/Add", "op": "_FusedConv2D", "input": ["PartitionedCall/model_55/tf.math.multiply_910/Mul", "unknown_133", "unknown_139"], "device": "/device:CPU:0", "attr": {"num_host_args": {"i": "0"}, "data_format": {"s": "TkhXQw=="}, "filter_format": {"s": "SFdJTw=="}, "fused_ops": {"list": {"s": ["Qmlhc0FkZA=="]}}, "num_args": {"i": "1"}, "strides": {"list": {"i": ["1", "1", "1", "1"]}}, "TArgs": {"list": {"type": ["DT_FLOAT"]}}, "padding": {"s": "U0FNRQ=="}, "use_cudnn_on_gpu": {"b": true}, "leakyrelu_alpha": {"f": 0.2}, "epsilon": {"f": 0.0}, "T": {"type": "DT_FLOAT"}, "explicit_paddings": {"list": {}}, "dilations": {"list": {"i": ["1", "1", "1", "1"]}}}}, {"name": "PartitionedCall/model_55/tf.math.add_280/Add", "op": "_FusedConv2D", "input": ["PartitionedCall/model_55/tf.math.multiply_910/Mul", "unknown_132", "unknown_138"], "device": "/device:CPU:0", "attr": {"num_host_args": {"i": "0"}, "data_format": {"s": "TkhXQw=="}, "filter_format": {"s": "SFdJTw=="}, "fused_ops": {"list": {"s": ["Qmlhc0FkZA=="]}}, "num_args": {"i": "1"}, "strides": {"list": {"i": ["1", "1", "1", "1"]}}, "TArgs": {"list": {"type": ["DT_FLOAT"]}}, "padding": {"s": "U0FNRQ=="}, "use_cudnn_on_gpu": {"b": true}, "leakyrelu_alpha": {"f": 0.2}, "epsilon": {"f": 0.0}, "T": {"type": "DT_FLOAT"}, "explicit_paddings": {"list": {}}, "dilations": {"list": {"i": ["1", "1", "1", "1"]}}}}, {"name": "PartitionedCall/model_55/tf.compat.v1.pad_26/Pad", "op": "Pad", "input": ["PartitionedCall/model_55/tf.math.multiply_910/Mul", "unknown_98"], "attr": {"Tpaddings": {"type": "DT_INT32"}, "T": {"type": "DT_FLOAT"}}}, {"name": "PartitionedCall/model_55/tf.math.sigmoid_210/Sigmoid", "op": "Sigmoid", "input": ["PartitionedCall/model_55/tf.math.add_279/Add"], "attr": {"T": {"type": "DT_FLOAT"}}}, {"name": "PartitionedCall/model_55/tf.math.sigmoid_211/Sigmoid", "op": "Sigmoid", "input": ["PartitionedCall/model_55/tf.math.add_280/Add"], "attr": {"T": {"type": "DT_FLOAT"}}}, {"name": "PartitionedCall/model_55/tf.math.add_278/Add", "op": "_FusedConv2D", "input": ["PartitionedCall/model_55/tf.compat.v1.pad_26/Pad", "unknown_99", "unknown_100"], "device": "/device:CPU:0", "attr": {"num_host_args": {"i": "0"}, "data_format": {"s": "TkhXQw=="}, "filter_format": {"s": "SFdJTw=="}, "fused_ops": {"list": {"s": ["Qmlhc0FkZA=="]}}, "num_args": {"i": "1"}, "strides": {"list": {"i": ["1", "2", "2", "1"]}}, "TArgs": {"list": {"type": ["DT_FLOAT"]}}, "padding": {"s": "VkFMSUQ="}, "use_cudnn_on_gpu": {"b": true}, "leakyrelu_alpha": {"f": 0.2}, "epsilon": {"f": 0.0}, "T": {"type": "DT_FLOAT"}, "explicit_paddings": {"list": {}}, "dilations": {"list": {"i": ["1", "1", "1", "1"]}}}}, {"name": "PartitionedCall/model_55/tf.math.multiply_918/Mul", "op": "Mul", "input": ["PartitionedCall/model_55/tf.math.add_279/Add", "PartitionedCall/model_55/tf.math.sigmoid_210/Sigmoid"], "attr": {"T": {"type": "DT_FLOAT"}}}, {"name": "PartitionedCall/model_55/tf.math.multiply_922/Mul", "op": "Mul", "input": ["PartitionedCall/model_55/tf.math.add_280/Add", "PartitionedCall/model_55/tf.math.sigmoid_211/Sigmoid"], "attr": {"T": {"type": "DT_FLOAT"}}}, {"name": "PartitionedCall/model_55/tf.math.sigmoid_209/Sigmoid", "op": "Sigmoid", "input": ["PartitionedCall/model_55/tf.math.add_278/Add"], "attr": {"T": {"type": "DT_FLOAT"}}}, {"name": "PartitionedCall/model_55/tf.math.add_281/Add", "op": "_FusedConv2D", "input": ["PartitionedCall/model_55/tf.math.multiply_918/Mul", "unknown_145", "unknown_151"], "device": "/device:CPU:0", "attr": {"num_host_args": {"i": "0"}, "data_format": {"s": "TkhXQw=="}, "filter_format": {"s": "SFdJTw=="}, "strides": {"list": {"i": ["1", "1", "1", "1"]}}, "num_args": {"i": "1"}, "fused_ops": {"list": {"s": ["Qmlhc0FkZA=="]}}, "TArgs": {"list": {"type": ["DT_FLOAT"]}}, "padding": {"s": "U0FNRQ=="}, "use_cudnn_on_gpu": {"b": true}, "leakyrelu_alpha": {"f": 0.2}, "epsilon": {"f": 0.0}, "T": {"type": "DT_FLOAT"}, "explicit_paddings": {"list": {}}, "dilations": {"list": {"i": ["1", "1", "1", "1"]}}}}, {"name": "PartitionedCall/model_55/tf.math.add_282/Add", "op": "_FusedConv2D", "input": ["PartitionedCall/model_55/tf.math.multiply_922/Mul", "unknown_144", "unknown_150"], "device": "/device:CPU:0", "attr": {"num_host_args": {"i": "0"}, "data_format": {"s": "TkhXQw=="}, "filter_format": {"s": "SFdJTw=="}, "strides": {"list": {"i": ["1", "1", "1", "1"]}}, "num_args": {"i": "1"}, "fused_ops": {"list": {"s": ["Qmlhc0FkZA=="]}}, "TArgs": {"list": {"type": ["DT_FLOAT"]}}, "padding": {"s": "U0FNRQ=="}, "use_cudnn_on_gpu": {"b": true}, "leakyrelu_alpha": {"f": 0.2}, "epsilon": {"f": 0.0}, "T": {"type": "DT_FLOAT"}, "explicit_paddings": {"list": {}}, "dilations": {"list": {"i": ["1", "1", "1", "1"]}}}}, {"name": "PartitionedCall/model_55/tf.math.multiply_914/Mul", "op": "Mul", "input": ["PartitionedCall/model_55/tf.math.add_278/Add", "PartitionedCall/model_55/tf.math.sigmoid_209/Sigmoid"], "attr": {"T": {"type": "DT_FLOAT"}}}, {"name": "PartitionedCall/model_55/tf.math.sigmoid_212/Sigmoid", "op": "Sigmoid", "input": ["PartitionedCall/model_55/tf.math.add_281/Add"], "attr": {"T": {"type": "DT_FLOAT"}}}, {"name": "PartitionedCall/model_55/tf.math.sigmoid_213/Sigmoid", "op": "Sigmoid", "input": ["PartitionedCall/model_55/tf.math.add_282/Add"], "attr": {"T": {"type": "DT_FLOAT"}}}, {"name": "PartitionedCall/model_55/tf.concat_75/concat", "op": "ConcatV2", "input": ["PartitionedCall/model_55/tf.math.multiply_914/Mul", "PartitionedCall/model_55/tf.math.multiply_894/Mul", "PartitionedCall/model_55/tf.concat_75/concat/axis"], "attr": {"N": {"i": "2"}, "T": {"type": "DT_FLOAT"}, "Tidx": {"type": "DT_INT32"}}}, {"name": "PartitionedCall/model_55/tf.math.multiply_926/Mul", "op": "Mul", "input": ["PartitionedCall/model_55/tf.math.add_281/Add", "PartitionedCall/model_55/tf.math.sigmoid_212/Sigmoid"], "attr": {"T": {"type": "DT_FLOAT"}}}, {"name": "PartitionedCall/model_55/tf.math.multiply_930/Mul", "op": "Mul", "input": ["PartitionedCall/model_55/tf.math.add_282/Add", "PartitionedCall/model_55/tf.math.sigmoid_213/Sigmoid"], "attr": {"T": {"type": "DT_FLOAT"}}}, {"name": "PartitionedCall/model_55/tf.math.add_283/Add", "op": "_FusedConv2D", "input": ["PartitionedCall/model_55/tf.concat_75/concat", "unknown_101", "unknown_102"], "device": "/device:CPU:0", "attr": {"num_host_args": {"i": "0"}, "data_format": {"s": "TkhXQw=="}, "filter_format": {"s": "SFdJTw=="}, "strides": {"list": {"i": ["1", "1", "1", "1"]}}, "num_args": {"i": "1"}, "fused_ops": {"list": {"s": ["Qmlhc0FkZA=="]}}, "TArgs": {"list": {"type": ["DT_FLOAT"]}}, "padding": {"s": "U0FNRQ=="}, "use_cudnn_on_gpu": {"b": true}, "leakyrelu_alpha": {"f": 0.2}, "epsilon": {"f": 0.0}, "T": {"type": "DT_FLOAT"}, "explicit_paddings": {"list": {}}, "dilations": {"list": {"i": ["1", "1", "1", "1"]}}}}, {"name": "PartitionedCall/model_55/tf.math.add_284/Add", "op": "_FusedConv2D", "input": ["PartitionedCall/model_55/tf.math.multiply_926/Mul", "unknown_157", "unknown_162"], "device": "/device:CPU:0", "attr": {"num_host_args": {"i": "0"}, "data_format": {"s": "TkhXQw=="}, "filter_format": {"s": "SFdJTw=="}, "strides": {"list": {"i": ["1", "1", "1", "1"]}}, "num_args": {"i": "1"}, "fused_ops": {"list": {"s": ["Qmlhc0FkZA=="]}}, "TArgs": {"list": {"type": ["DT_FLOAT"]}}, "padding": {"s": "U0FNRQ=="}, "use_cudnn_on_gpu": {"b": true}, "leakyrelu_alpha": {"f": 0.2}, "epsilon": {"f": 0.0}, "T": {"type": "DT_FLOAT"}, "explicit_paddings": {"list": {}}, "dilations": {"list": {"i": ["1", "1", "1", "1"]}}}}, {"name": "PartitionedCall/model_55/tf.math.add_285/Add", "op": "_FusedConv2D", "input": ["PartitionedCall/model_55/tf.math.multiply_930/Mul", "unknown_156", "unknown_163"], "device": "/device:CPU:0", "attr": {"num_host_args": {"i": "0"}, "data_format": {"s": "TkhXQw=="}, "filter_format": {"s": "SFdJTw=="}, "strides": {"list": {"i": ["1", "1", "1", "1"]}}, "num_args": {"i": "1"}, "fused_ops": {"list": {"s": ["Qmlhc0FkZA=="]}}, "TArgs": {"list": {"type": ["DT_FLOAT"]}}, "padding": {"s": "U0FNRQ=="}, "use_cudnn_on_gpu": {"b": true}, "leakyrelu_alpha": {"f": 0.2}, "epsilon": {"f": 0.0}, "T": {"type": "DT_FLOAT"}, "explicit_paddings": {"list": {}}, "dilations": {"list": {"i": ["1", "1", "1", "1"]}}}}, {"name": "PartitionedCall/model_55/tf.math.sigmoid_214/Sigmoid", "op": "Sigmoid", "input": ["PartitionedCall/model_55/tf.math.add_283/Add"], "attr": {"T": {"type": "DT_FLOAT"}}}, {"name": "PartitionedCall/model_55/tf.concat_76/concat", "op": "ConcatV2", "input": ["PartitionedCall/model_55/tf.math.add_284/Add", "PartitionedCall/model_55/tf.math.add_285/Add", "PartitionedCall/model_55/tf.concat_76/concat/axis"], "attr": {"N": {"i": "2"}, "T": {"type": "DT_FLOAT"}, "Tidx": {"type": "DT_INT32"}}}, {"name": "PartitionedCall/model_55/tf.math.multiply_934/Mul", "op": "Mul", "input": ["PartitionedCall/model_55/tf.math.add_283/Add", "PartitionedCall/model_55/tf.math.sigmoid_214/Sigmoid"], "attr": {"T": {"type": "DT_FLOAT"}}}, {"name": "PartitionedCall/model_55/tf.compat.v1.transpose_322/transpose", "op": "Transpose", "input": ["PartitionedCall/model_55/tf.concat_76/concat", "PartitionedCall/model_55/tf.compat.v1.transpose_322/transpose/perm"], "attr": {"Tperm": {"type": "DT_INT32"}, "T": {"type": "DT_FLOAT"}}}, {"name": "PartitionedCall/model_55/tf.strided_slice_72/StridedSlice", "op": "StridedSlice", "input": ["PartitionedCall/model_55/tf.math.multiply_934/Mul", "unknown_109", "unknown_110", "PartitionedCall/model_55/tf.strided_slice_72/ones_like"], "attr": {"shrink_axis_mask": {"i": "0"}, "Index": {"type": "DT_INT64"}, "new_axis_mask": {"i": "0"}, "begin_mask": {"i": "15"}, "T": {"type": "DT_FLOAT"}, "end_mask": {"i": "7"}, "ellipsis_mask": {"i": "0"}}}, {"name": "PartitionedCall/model_55/tf.strided_slice_73/StridedSlice", "op": "StridedSlice", "input": ["PartitionedCall/model_55/tf.math.multiply_934/Mul", "unknown_103", "unknown_104", "PartitionedCall/model_55/tf.strided_slice_73/ones_like"], "attr": {"shrink_axis_mask": {"i": "0"}, "new_axis_mask": {"i": "0"}, "Index": {"type": "DT_INT64"}, "begin_mask": {"i": "7"}, "T": {"type": "DT_FLOAT"}, "end_mask": {"i": "7"}, "ellipsis_mask": {"i": "0"}}}, {"name": "PartitionedCall/model_55/tf.reshape_47/Reshape", "op": "Reshape", "input": ["PartitionedCall/model_55/tf.compat.v1.transpose_322/transpose", "PartitionedCall/model_55/tf.reshape_47/Reshape/shape"], "attr": {"T": {"type": "DT_FLOAT"}, "Tshape": {"type": "DT_INT32"}}}, {"name": "PartitionedCall/model_55/tf.math.add_286/Add", "op": "_FusedConv2D", "input": ["PartitionedCall/model_55/tf.strided_slice_73/StridedSlice", "unknown_105", "unknown_106"], "device": "/device:CPU:0", "attr": {"num_host_args": {"i": "0"}, "data_format": {"s": "TkhXQw=="}, "filter_format": {"s": "SFdJTw=="}, "fused_ops": {"list": {"s": ["Qmlhc0FkZA=="]}}, "num_args": {"i": "1"}, "strides": {"list": {"i": ["1", "1", "1", "1"]}}, "TArgs": {"list": {"type": ["DT_FLOAT"]}}, "padding": {"s": "U0FNRQ=="}, "use_cudnn_on_gpu": {"b": true}, "leakyrelu_alpha": {"f": 0.2}, "epsilon": {"f": 0.0}, "T": {"type": "DT_FLOAT"}, "explicit_paddings": {"list": {}}, "dilations": {"list": {"i": ["1", "1", "1", "1"]}}}}, {"name": "PartitionedCall/model_55/tf.math.sigmoid_215/Sigmoid", "op": "Sigmoid", "input": ["PartitionedCall/model_55/tf.math.add_286/Add"], "attr": {"T": {"type": "DT_FLOAT"}}}, {"name": "PartitionedCall/model_55/tf.math.multiply_938/Mul", "op": "Mul", "input": ["PartitionedCall/model_55/tf.math.add_286/Add", "PartitionedCall/model_55/tf.math.sigmoid_215/Sigmoid"], "attr": {"T": {"type": "DT_FLOAT"}}}, {"name": "PartitionedCall/model_55/tf.math.add_287/Add", "op": "_FusedConv2D", "input": ["PartitionedCall/model_55/tf.math.multiply_938/Mul", "unknown_107", "unknown_108"], "device": "/device:CPU:0", "attr": {"num_host_args": {"i": "0"}, "data_format": {"s": "TkhXQw=="}, "filter_format": {"s": "SFdJTw=="}, "fused_ops": {"list": {"s": ["Qmlhc0FkZA=="]}}, "num_args": {"i": "1"}, "strides": {"list": {"i": ["1", "1", "1", "1"]}}, "TArgs": {"list": {"type": ["DT_FLOAT"]}}, "padding": {"s": "U0FNRQ=="}, "use_cudnn_on_gpu": {"b": true}, "leakyrelu_alpha": {"f": 0.2}, "epsilon": {"f": 0.0}, "T": {"type": "DT_FLOAT"}, "explicit_paddings": {"list": {}}, "dilations": {"list": {"i": ["1", "1", "1", "1"]}}}}, {"name": "PartitionedCall/model_55/tf.math.sigmoid_216/Sigmoid", "op": "Sigmoid", "input": ["PartitionedCall/model_55/tf.math.add_287/Add"], "attr": {"T": {"type": "DT_FLOAT"}}}, {"name": "PartitionedCall/model_55/tf.math.multiply_942/Mul", "op": "Mul", "input": ["PartitionedCall/model_55/tf.math.add_287/Add", "PartitionedCall/model_55/tf.math.sigmoid_216/Sigmoid"], "attr": {"T": {"type": "DT_FLOAT"}}}, {"name": "PartitionedCall/model_55/tf.concat_77/concat", "op": "ConcatV2", "input": ["PartitionedCall/model_55/tf.strided_slice_72/StridedSlice", "PartitionedCall/model_55/tf.strided_slice_73/StridedSlice", "PartitionedCall/model_55/tf.math.multiply_942/Mul", "PartitionedCall/model_55/tf.concat_77/concat/axis"], "attr": {"N": {"i": "3"}, "Tidx": {"type": "DT_INT32"}, "T": {"type": "DT_FLOAT"}}}, {"name": "PartitionedCall/model_55/tf.math.add_288/Add", "op": "_FusedConv2D", "input": ["PartitionedCall/model_55/tf.concat_77/concat", "unknown_111", "unknown_112"], "device": "/device:CPU:0", "attr": {"num_host_args": {"i": "0"}, "data_format": {"s": "TkhXQw=="}, "filter_format": {"s": "SFdJTw=="}, "strides": {"list": {"i": ["1", "1", "1", "1"]}}, "num_args": {"i": "1"}, "fused_ops": {"list": {"s": ["Qmlhc0FkZA=="]}}, "TArgs": {"list": {"type": ["DT_FLOAT"]}}, "padding": {"s": "U0FNRQ=="}, "use_cudnn_on_gpu": {"b": true}, "leakyrelu_alpha": {"f": 0.2}, "epsilon": {"f": 0.0}, "T": {"type": "DT_FLOAT"}, "explicit_paddings": {"list": {}}, "dilations": {"list": {"i": ["1", "1", "1", "1"]}}}}, {"name": "PartitionedCall/model_55/tf.math.sigmoid_217/Sigmoid", "op": "Sigmoid", "input": ["PartitionedCall/model_55/tf.math.add_288/Add"], "attr": {"T": {"type": "DT_FLOAT"}}}, {"name": "PartitionedCall/model_55/tf.math.multiply_946/Mul", "op": "Mul", "input": ["PartitionedCall/model_55/tf.math.add_288/Add", "PartitionedCall/model_55/tf.math.sigmoid_217/Sigmoid"], "attr": {"T": {"type": "DT_FLOAT"}}}, {"name": "PartitionedCall/model_55/tf.math.add_290/Add", "op": "_FusedConv2D", "input": ["PartitionedCall/model_55/tf.math.multiply_946/Mul", "unknown_131", "unknown_137"], "device": "/device:CPU:0", "attr": {"num_host_args": {"i": "0"}, "data_format": {"s": "TkhXQw=="}, "filter_format": {"s": "SFdJTw=="}, "fused_ops": {"list": {"s": ["Qmlhc0FkZA=="]}}, "num_args": {"i": "1"}, "strides": {"list": {"i": ["1", "1", "1", "1"]}}, "TArgs": {"list": {"type": ["DT_FLOAT"]}}, "padding": {"s": "U0FNRQ=="}, "use_cudnn_on_gpu": {"b": true}, "leakyrelu_alpha": {"f": 0.2}, "epsilon": {"f": 0.0}, "T": {"type": "DT_FLOAT"}, "explicit_paddings": {"list": {}}, "dilations": {"list": {"i": ["1", "1", "1", "1"]}}}}, {"name": "PartitionedCall/model_55/tf.math.add_291/Add", "op": "_FusedConv2D", "input": ["PartitionedCall/model_55/tf.math.multiply_946/Mul", "unknown_130", "unknown_136"], "device": "/device:CPU:0", "attr": {"num_host_args": {"i": "0"}, "data_format": {"s": "TkhXQw=="}, "filter_format": {"s": "SFdJTw=="}, "strides": {"list": {"i": ["1", "1", "1", "1"]}}, "num_args": {"i": "1"}, "fused_ops": {"list": {"s": ["Qmlhc0FkZA=="]}}, "TArgs": {"list": {"type": ["DT_FLOAT"]}}, "padding": {"s": "U0FNRQ=="}, "use_cudnn_on_gpu": {"b": true}, "leakyrelu_alpha": {"f": 0.2}, "epsilon": {"f": 0.0}, "T": {"type": "DT_FLOAT"}, "explicit_paddings": {"list": {}}, "dilations": {"list": {"i": ["1", "1", "1", "1"]}}}}, {"name": "PartitionedCall/model_55/tf.compat.v1.pad_27/Pad", "op": "Pad", "input": ["PartitionedCall/model_55/tf.math.multiply_946/Mul", "unknown_113"], "attr": {"Tpaddings": {"type": "DT_INT32"}, "T": {"type": "DT_FLOAT"}}}, {"name": "PartitionedCall/model_55/tf.math.sigmoid_219/Sigmoid", "op": "Sigmoid", "input": ["PartitionedCall/model_55/tf.math.add_290/Add"], "attr": {"T": {"type": "DT_FLOAT"}}}, {"name": "PartitionedCall/model_55/tf.math.sigmoid_220/Sigmoid", "op": "Sigmoid", "input": ["PartitionedCall/model_55/tf.math.add_291/Add"], "attr": {"T": {"type": "DT_FLOAT"}}}, {"name": "PartitionedCall/model_55/tf.math.add_289/Add", "op": "_FusedConv2D", "input": ["PartitionedCall/model_55/tf.compat.v1.pad_27/Pad", "unknown_114", "unknown_115"], "device": "/device:CPU:0", "attr": {"num_host_args": {"i": "0"}, "data_format": {"s": "TkhXQw=="}, "filter_format": {"s": "SFdJTw=="}, "strides": {"list": {"i": ["1", "2", "2", "1"]}}, "num_args": {"i": "1"}, "fused_ops": {"list": {"s": ["Qmlhc0FkZA=="]}}, "TArgs": {"list": {"type": ["DT_FLOAT"]}}, "padding": {"s": "VkFMSUQ="}, "use_cudnn_on_gpu": {"b": true}, "leakyrelu_alpha": {"f": 0.2}, "epsilon": {"f": 0.0}, "T": {"type": "DT_FLOAT"}, "explicit_paddings": {"list": {}}, "dilations": {"list": {"i": ["1", "1", "1", "1"]}}}}, {"name": "PartitionedCall/model_55/tf.math.multiply_954/Mul", "op": "Mul", "input": ["PartitionedCall/model_55/tf.math.add_290/Add", "PartitionedCall/model_55/tf.math.sigmoid_219/Sigmoid"], "attr": {"T": {"type": "DT_FLOAT"}}}, {"name": "PartitionedCall/model_55/tf.math.multiply_958/Mul", "op": "Mul", "input": ["PartitionedCall/model_55/tf.math.add_291/Add", "PartitionedCall/model_55/tf.math.sigmoid_220/Sigmoid"], "attr": {"T": {"type": "DT_FLOAT"}}}, {"name": "PartitionedCall/model_55/tf.math.sigmoid_218/Sigmoid", "op": "Sigmoid", "input": ["PartitionedCall/model_55/tf.math.add_289/Add"], "attr": {"T": {"type": "DT_FLOAT"}}}, {"name": "PartitionedCall/model_55/tf.math.add_292/Add", "op": "_FusedConv2D", "input": ["PartitionedCall/model_55/tf.math.multiply_954/Mul", "unknown_143", "unknown_149"], "device": "/device:CPU:0", "attr": {"num_host_args": {"i": "0"}, "data_format": {"s": "TkhXQw=="}, "filter_format": {"s": "SFdJTw=="}, "fused_ops": {"list": {"s": ["Qmlhc0FkZA=="]}}, "num_args": {"i": "1"}, "strides": {"list": {"i": ["1", "1", "1", "1"]}}, "TArgs": {"list": {"type": ["DT_FLOAT"]}}, "padding": {"s": "U0FNRQ=="}, "use_cudnn_on_gpu": {"b": true}, "leakyrelu_alpha": {"f": 0.2}, "epsilon": {"f": 0.0}, "T": {"type": "DT_FLOAT"}, "explicit_paddings": {"list": {}}, "dilations": {"list": {"i": ["1", "1", "1", "1"]}}}}, {"name": "PartitionedCall/model_55/tf.math.add_293/Add", "op": "_FusedConv2D", "input": ["PartitionedCall/model_55/tf.math.multiply_958/Mul", "unknown_142", "unknown_148"], "device": "/device:CPU:0", "attr": {"num_host_args": {"i": "0"}, "data_format": {"s": "TkhXQw=="}, "filter_format": {"s": "SFdJTw=="}, "strides": {"list": {"i": ["1", "1", "1", "1"]}}, "num_args": {"i": "1"}, "fused_ops": {"list": {"s": ["Qmlhc0FkZA=="]}}, "TArgs": {"list": {"type": ["DT_FLOAT"]}}, "padding": {"s": "U0FNRQ=="}, "use_cudnn_on_gpu": {"b": true}, "leakyrelu_alpha": {"f": 0.2}, "epsilon": {"f": 0.0}, "T": {"type": "DT_FLOAT"}, "explicit_paddings": {"list": {}}, "dilations": {"list": {"i": ["1", "1", "1", "1"]}}}}, {"name": "PartitionedCall/model_55/tf.math.multiply_950/Mul", "op": "Mul", "input": ["PartitionedCall/model_55/tf.math.add_289/Add", "PartitionedCall/model_55/tf.math.sigmoid_218/Sigmoid"], "attr": {"T": {"type": "DT_FLOAT"}}}, {"name": "PartitionedCall/model_55/tf.math.sigmoid_221/Sigmoid", "op": "Sigmoid", "input": ["PartitionedCall/model_55/tf.math.add_292/Add"], "attr": {"T": {"type": "DT_FLOAT"}}}, {"name": "PartitionedCall/model_55/tf.math.sigmoid_222/Sigmoid", "op": "Sigmoid", "input": ["PartitionedCall/model_55/tf.math.add_293/Add"], "attr": {"T": {"type": "DT_FLOAT"}}}, {"name": "PartitionedCall/model_55/tf.concat_78/concat", "op": "ConcatV2", "input": ["PartitionedCall/model_55/tf.math.multiply_950/Mul", "PartitionedCall/model_55/tf.math.multiply_878/Mul", "PartitionedCall/model_55/tf.concat_78/concat/axis"], "attr": {"N": {"i": "2"}, "Tidx": {"type": "DT_INT32"}, "T": {"type": "DT_FLOAT"}}}, {"name": "PartitionedCall/model_55/tf.math.multiply_962/Mul", "op": "Mul", "input": ["PartitionedCall/model_55/tf.math.add_292/Add", "PartitionedCall/model_55/tf.math.sigmoid_221/Sigmoid"], "attr": {"T": {"type": "DT_FLOAT"}}}, {"name": "PartitionedCall/model_55/tf.math.multiply_966/Mul", "op": "Mul", "input": ["PartitionedCall/model_55/tf.math.add_293/Add", "PartitionedCall/model_55/tf.math.sigmoid_222/Sigmoid"], "attr": {"T": {"type": "DT_FLOAT"}}}, {"name": "PartitionedCall/model_55/tf.math.add_294/Add", "op": "_FusedConv2D", "input": ["PartitionedCall/model_55/tf.concat_78/concat", "unknown_116", "unknown_117"], "device": "/device:CPU:0", "attr": {"num_host_args": {"i": "0"}, "data_format": {"s": "TkhXQw=="}, "filter_format": {"s": "SFdJTw=="}, "strides": {"list": {"i": ["1", "1", "1", "1"]}}, "num_args": {"i": "1"}, "fused_ops": {"list": {"s": ["Qmlhc0FkZA=="]}}, "TArgs": {"list": {"type": ["DT_FLOAT"]}}, "padding": {"s": "U0FNRQ=="}, "use_cudnn_on_gpu": {"b": true}, "leakyrelu_alpha": {"f": 0.2}, "epsilon": {"f": 0.0}, "T": {"type": "DT_FLOAT"}, "explicit_paddings": {"list": {}}, "dilations": {"list": {"i": ["1", "1", "1", "1"]}}}}, {"name": "PartitionedCall/model_55/tf.math.add_295/Add", "op": "_FusedConv2D", "input": ["PartitionedCall/model_55/tf.math.multiply_962/Mul", "unknown_155", "unknown_160"], "device": "/device:CPU:0", "attr": {"num_host_args": {"i": "0"}, "data_format": {"s": "TkhXQw=="}, "filter_format": {"s": "SFdJTw=="}, "fused_ops": {"list": {"s": ["Qmlhc0FkZA=="]}}, "num_args": {"i": "1"}, "strides": {"list": {"i": ["1", "1", "1", "1"]}}, "TArgs": {"list": {"type": ["DT_FLOAT"]}}, "padding": {"s": "U0FNRQ=="}, "use_cudnn_on_gpu": {"b": true}, "leakyrelu_alpha": {"f": 0.2}, "epsilon": {"f": 0.0}, "T": {"type": "DT_FLOAT"}, "explicit_paddings": {"list": {}}, "dilations": {"list": {"i": ["1", "1", "1", "1"]}}}}, {"name": "PartitionedCall/model_55/tf.math.add_296/Add", "op": "_FusedConv2D", "input": ["PartitionedCall/model_55/tf.math.multiply_966/Mul", "unknown_154", "unknown_161"], "device": "/device:CPU:0", "attr": {"num_host_args": {"i": "0"}, "data_format": {"s": "TkhXQw=="}, "filter_format": {"s": "SFdJTw=="}, "fused_ops": {"list": {"s": ["Qmlhc0FkZA=="]}}, "num_args": {"i": "1"}, "strides": {"list": {"i": ["1", "1", "1", "1"]}}, "TArgs": {"list": {"type": ["DT_FLOAT"]}}, "padding": {"s": "U0FNRQ=="}, "use_cudnn_on_gpu": {"b": true}, "leakyrelu_alpha": {"f": 0.2}, "epsilon": {"f": 0.0}, "T": {"type": "DT_FLOAT"}, "explicit_paddings": {"list": {}}, "dilations": {"list": {"i": ["1", "1", "1", "1"]}}}}, {"name": "PartitionedCall/model_55/tf.math.sigmoid_223/Sigmoid", "op": "Sigmoid", "input": ["PartitionedCall/model_55/tf.math.add_294/Add"], "attr": {"T": {"type": "DT_FLOAT"}}}, {"name": "PartitionedCall/model_55/tf.concat_79/concat", "op": "ConcatV2", "input": ["PartitionedCall/model_55/tf.math.add_295/Add", "PartitionedCall/model_55/tf.math.add_296/Add", "PartitionedCall/model_55/tf.concat_79/concat/axis"], "attr": {"N": {"i": "2"}, "T": {"type": "DT_FLOAT"}, "Tidx": {"type": "DT_INT32"}}}, {"name": "PartitionedCall/model_55/tf.math.multiply_970/Mul", "op": "Mul", "input": ["PartitionedCall/model_55/tf.math.add_294/Add", "PartitionedCall/model_55/tf.math.sigmoid_223/Sigmoid"], "attr": {"T": {"type": "DT_FLOAT"}}}, {"name": "PartitionedCall/model_55/tf.compat.v1.transpose_336/transpose", "op": "Transpose", "input": ["PartitionedCall/model_55/tf.concat_79/concat", "PartitionedCall/model_55/tf.compat.v1.transpose_336/transpose/perm"], "attr": {"Tperm": {"type": "DT_INT32"}, "T": {"type": "DT_FLOAT"}}}, {"name": "PartitionedCall/model_55/tf.strided_slice_74/StridedSlice", "op": "StridedSlice", "input": ["PartitionedCall/model_55/tf.math.multiply_970/Mul", "unknown_124", "unknown_125", "PartitionedCall/model_55/tf.strided_slice_74/ones_like"], "attr": {"shrink_axis_mask": {"i": "0"}, "new_axis_mask": {"i": "0"}, "Index": {"type": "DT_INT64"}, "begin_mask": {"i": "15"}, "end_mask": {"i": "7"}, "T": {"type": "DT_FLOAT"}, "ellipsis_mask": {"i": "0"}}}, {"name": "PartitionedCall/model_55/tf.strided_slice_75/StridedSlice", "op": "StridedSlice", "input": ["PartitionedCall/model_55/tf.math.multiply_970/Mul", "unknown_118", "unknown_119", "PartitionedCall/model_55/tf.strided_slice_75/ones_like"], "attr": {"shrink_axis_mask": {"i": "0"}, "new_axis_mask": {"i": "0"}, "Index": {"type": "DT_INT64"}, "begin_mask": {"i": "7"}, "end_mask": {"i": "7"}, "T": {"type": "DT_FLOAT"}, "ellipsis_mask": {"i": "0"}}}, {"name": "PartitionedCall/model_55/tf.reshape_50/Reshape", "op": "Reshape", "input": ["PartitionedCall/model_55/tf.compat.v1.transpose_336/transpose", "PartitionedCall/model_55/tf.reshape_50/Reshape/shape"], "attr": {"T": {"type": "DT_FLOAT"}, "Tshape": {"type": "DT_INT32"}}}, {"name": "PartitionedCall/model_55/tf.math.add_297/Add", "op": "_FusedConv2D", "input": ["PartitionedCall/model_55/tf.strided_slice_75/StridedSlice", "unknown_120", "unknown_121"], "device": "/device:CPU:0", "attr": {"num_host_args": {"i": "0"}, "data_format": {"s": "TkhXQw=="}, "filter_format": {"s": "SFdJTw=="}, "fused_ops": {"list": {"s": ["Qmlhc0FkZA=="]}}, "num_args": {"i": "1"}, "strides": {"list": {"i": ["1", "1", "1", "1"]}}, "TArgs": {"list": {"type": ["DT_FLOAT"]}}, "padding": {"s": "U0FNRQ=="}, "use_cudnn_on_gpu": {"b": true}, "leakyrelu_alpha": {"f": 0.2}, "epsilon": {"f": 0.0}, "T": {"type": "DT_FLOAT"}, "explicit_paddings": {"list": {}}, "dilations": {"list": {"i": ["1", "1", "1", "1"]}}}}, {"name": "PartitionedCall/model_55/tf.math.sigmoid_224/Sigmoid", "op": "Sigmoid", "input": ["PartitionedCall/model_55/tf.math.add_297/Add"], "attr": {"T": {"type": "DT_FLOAT"}}}, {"name": "PartitionedCall/model_55/tf.math.multiply_974/Mul", "op": "Mul", "input": ["PartitionedCall/model_55/tf.math.add_297/Add", "PartitionedCall/model_55/tf.math.sigmoid_224/Sigmoid"], "attr": {"T": {"type": "DT_FLOAT"}}}, {"name": "PartitionedCall/model_55/tf.math.add_298/Add", "op": "_FusedConv2D", "input": ["PartitionedCall/model_55/tf.math.multiply_974/Mul", "unknown_122", "unknown_123"], "device": "/device:CPU:0", "attr": {"num_host_args": {"i": "0"}, "data_format": {"s": "TkhXQw=="}, "filter_format": {"s": "SFdJTw=="}, "fused_ops": {"list": {"s": ["Qmlhc0FkZA=="]}}, "num_args": {"i": "1"}, "strides": {"list": {"i": ["1", "1", "1", "1"]}}, "TArgs": {"list": {"type": ["DT_FLOAT"]}}, "padding": {"s": "U0FNRQ=="}, "use_cudnn_on_gpu": {"b": true}, "leakyrelu_alpha": {"f": 0.2}, "epsilon": {"f": 0.0}, "T": {"type": "DT_FLOAT"}, "explicit_paddings": {"list": {}}, "dilations": {"list": {"i": ["1", "1", "1", "1"]}}}}, {"name": "PartitionedCall/model_55/tf.math.sigmoid_225/Sigmoid", "op": "Sigmoid", "input": ["PartitionedCall/model_55/tf.math.add_298/Add"], "attr": {"T": {"type": "DT_FLOAT"}}}, {"name": "PartitionedCall/model_55/tf.math.multiply_978/Mul", "op": "Mul", "input": ["PartitionedCall/model_55/tf.math.add_298/Add", "PartitionedCall/model_55/tf.math.sigmoid_225/Sigmoid"], "attr": {"T": {"type": "DT_FLOAT"}}}, {"name": "PartitionedCall/model_55/tf.concat_80/concat", "op": "ConcatV2", "input": ["PartitionedCall/model_55/tf.strided_slice_74/StridedSlice", "PartitionedCall/model_55/tf.strided_slice_75/StridedSlice", "PartitionedCall/model_55/tf.math.multiply_978/Mul", "PartitionedCall/model_55/tf.concat_80/concat/axis"], "attr": {"N": {"i": "3"}, "Tidx": {"type": "DT_INT32"}, "T": {"type": "DT_FLOAT"}}}, {"name": "PartitionedCall/model_55/tf.math.add_299/Add", "op": "_FusedConv2D", "input": ["PartitionedCall/model_55/tf.concat_80/concat", "unknown_126", "unknown_127"], "device": "/device:CPU:0", "attr": {"num_host_args": {"i": "0"}, "data_format": {"s": "TkhXQw=="}, "filter_format": {"s": "SFdJTw=="}, "strides": {"list": {"i": ["1", "1", "1", "1"]}}, "num_args": {"i": "1"}, "fused_ops": {"list": {"s": ["Qmlhc0FkZA=="]}}, "TArgs": {"list": {"type": ["DT_FLOAT"]}}, "padding": {"s": "U0FNRQ=="}, "use_cudnn_on_gpu": {"b": true}, "leakyrelu_alpha": {"f": 0.2}, "epsilon": {"f": 0.0}, "T": {"type": "DT_FLOAT"}, "explicit_paddings": {"list": {}}, "dilations": {"list": {"i": ["1", "1", "1", "1"]}}}}, {"name": "PartitionedCall/model_55/tf.math.sigmoid_226/Sigmoid", "op": "Sigmoid", "input": ["PartitionedCall/model_55/tf.math.add_299/Add"], "attr": {"T": {"type": "DT_FLOAT"}}}, {"name": "PartitionedCall/model_55/tf.math.multiply_982/Mul", "op": "Mul", "input": ["PartitionedCall/model_55/tf.math.add_299/Add", "PartitionedCall/model_55/tf.math.sigmoid_226/Sigmoid"], "attr": {"T": {"type": "DT_FLOAT"}}}, {"name": "PartitionedCall/model_55/tf.math.add_300/Add", "op": "_FusedConv2D", "input": ["PartitionedCall/model_55/tf.math.multiply_982/Mul", "unknown_129", "unknown_135"], "device": "/device:CPU:0", "attr": {"num_host_args": {"i": "0"}, "data_format": {"s": "TkhXQw=="}, "filter_format": {"s": "SFdJTw=="}, "strides": {"list": {"i": ["1", "1", "1", "1"]}}, "num_args": {"i": "1"}, "fused_ops": {"list": {"s": ["Qmlhc0FkZA=="]}}, "TArgs": {"list": {"type": ["DT_FLOAT"]}}, "padding": {"s": "U0FNRQ=="}, "use_cudnn_on_gpu": {"b": true}, "leakyrelu_alpha": {"f": 0.2}, "epsilon": {"f": 0.0}, "T": {"type": "DT_FLOAT"}, "explicit_paddings": {"list": {}}, "dilations": {"list": {"i": ["1", "1", "1", "1"]}}}}, {"name": "PartitionedCall/model_55/tf.math.add_301/Add", "op": "_FusedConv2D", "input": ["PartitionedCall/model_55/tf.math.multiply_982/Mul", "unknown_128", "unknown_134"], "device": "/device:CPU:0", "attr": {"num_host_args": {"i": "0"}, "data_format": {"s": "TkhXQw=="}, "filter_format": {"s": "SFdJTw=="}, "fused_ops": {"list": {"s": ["Qmlhc0FkZA=="]}}, "num_args": {"i": "1"}, "strides": {"list": {"i": ["1", "1", "1", "1"]}}, "TArgs": {"list": {"type": ["DT_FLOAT"]}}, "padding": {"s": "U0FNRQ=="}, "use_cudnn_on_gpu": {"b": true}, "leakyrelu_alpha": {"f": 0.2}, "epsilon": {"f": 0.0}, "T": {"type": "DT_FLOAT"}, "explicit_paddings": {"list": {}}, "dilations": {"list": {"i": ["1", "1", "1", "1"]}}}}, {"name": "PartitionedCall/model_55/tf.math.sigmoid_227/Sigmoid", "op": "Sigmoid", "input": ["PartitionedCall/model_55/tf.math.add_300/Add"], "attr": {"T": {"type": "DT_FLOAT"}}}, {"name": "PartitionedCall/model_55/tf.math.sigmoid_228/Sigmoid", "op": "Sigmoid", "input": ["PartitionedCall/model_55/tf.math.add_301/Add"], "attr": {"T": {"type": "DT_FLOAT"}}}, {"name": "PartitionedCall/model_55/tf.math.multiply_986/Mul", "op": "Mul", "input": ["PartitionedCall/model_55/tf.math.add_300/Add", "PartitionedCall/model_55/tf.math.sigmoid_227/Sigmoid"], "attr": {"T": {"type": "DT_FLOAT"}}}, {"name": "PartitionedCall/model_55/tf.math.multiply_990/Mul", "op": "Mul", "input": ["PartitionedCall/model_55/tf.math.add_301/Add", "PartitionedCall/model_55/tf.math.sigmoid_228/Sigmoid"], "attr": {"T": {"type": "DT_FLOAT"}}}, {"name": "PartitionedCall/model_55/tf.math.add_302/Add", "op": "_FusedConv2D", "input": ["PartitionedCall/model_55/tf.math.multiply_986/Mul", "unknown_141", "unknown_147"], "device": "/device:CPU:0", "attr": {"num_host_args": {"i": "0"}, "data_format": {"s": "TkhXQw=="}, "filter_format": {"s": "SFdJTw=="}, "fused_ops": {"list": {"s": ["Qmlhc0FkZA=="]}}, "num_args": {"i": "1"}, "strides": {"list": {"i": ["1", "1", "1", "1"]}}, "TArgs": {"list": {"type": ["DT_FLOAT"]}}, "padding": {"s": "U0FNRQ=="}, "use_cudnn_on_gpu": {"b": true}, "leakyrelu_alpha": {"f": 0.2}, "epsilon": {"f": 0.0}, "T": {"type": "DT_FLOAT"}, "explicit_paddings": {"list": {}}, "dilations": {"list": {"i": ["1", "1", "1", "1"]}}}}, {"name": "PartitionedCall/model_55/tf.math.add_303/Add", "op": "_FusedConv2D", "input": ["PartitionedCall/model_55/tf.math.multiply_990/Mul", "unknown_140", "unknown_146"], "device": "/device:CPU:0", "attr": {"num_host_args": {"i": "0"}, "data_format": {"s": "TkhXQw=="}, "filter_format": {"s": "SFdJTw=="}, "fused_ops": {"list": {"s": ["Qmlhc0FkZA=="]}}, "num_args": {"i": "1"}, "strides": {"list": {"i": ["1", "1", "1", "1"]}}, "TArgs": {"list": {"type": ["DT_FLOAT"]}}, "padding": {"s": "U0FNRQ=="}, "use_cudnn_on_gpu": {"b": true}, "leakyrelu_alpha": {"f": 0.2}, "epsilon": {"f": 0.0}, "T": {"type": "DT_FLOAT"}, "explicit_paddings": {"list": {}}, "dilations": {"list": {"i": ["1", "1", "1", "1"]}}}}, {"name": "PartitionedCall/model_55/tf.math.sigmoid_229/Sigmoid", "op": "Sigmoid", "input": ["PartitionedCall/model_55/tf.math.add_302/Add"], "attr": {"T": {"type": "DT_FLOAT"}}}, {"name": "PartitionedCall/model_55/tf.math.sigmoid_230/Sigmoid", "op": "Sigmoid", "input": ["PartitionedCall/model_55/tf.math.add_303/Add"], "attr": {"T": {"type": "DT_FLOAT"}}}, {"name": "PartitionedCall/model_55/tf.math.multiply_994/Mul", "op": "Mul", "input": ["PartitionedCall/model_55/tf.math.add_302/Add", "PartitionedCall/model_55/tf.math.sigmoid_229/Sigmoid"], "attr": {"T": {"type": "DT_FLOAT"}}}, {"name": "PartitionedCall/model_55/tf.math.multiply_998/Mul", "op": "Mul", "input": ["PartitionedCall/model_55/tf.math.add_303/Add", "PartitionedCall/model_55/tf.math.sigmoid_230/Sigmoid"], "attr": {"T": {"type": "DT_FLOAT"}}}, {"name": "PartitionedCall/model_55/tf.math.add_304/Add", "op": "_FusedConv2D", "input": ["PartitionedCall/model_55/tf.math.multiply_994/Mul", "unknown_153", "unknown_158"], "device": "/device:CPU:0", "attr": {"num_host_args": {"i": "0"}, "data_format": {"s": "TkhXQw=="}, "filter_format": {"s": "SFdJTw=="}, "fused_ops": {"list": {"s": ["Qmlhc0FkZA=="]}}, "num_args": {"i": "1"}, "strides": {"list": {"i": ["1", "1", "1", "1"]}}, "TArgs": {"list": {"type": ["DT_FLOAT"]}}, "padding": {"s": "U0FNRQ=="}, "use_cudnn_on_gpu": {"b": true}, "leakyrelu_alpha": {"f": 0.2}, "epsilon": {"f": 0.0}, "T": {"type": "DT_FLOAT"}, "explicit_paddings": {"list": {}}, "dilations": {"list": {"i": ["1", "1", "1", "1"]}}}}, {"name": "PartitionedCall/model_55/tf.math.add_305/Add", "op": "_FusedConv2D", "input": ["PartitionedCall/model_55/tf.math.multiply_998/Mul", "unknown_152", "unknown_159"], "device": "/device:CPU:0", "attr": {"num_host_args": {"i": "0"}, "data_format": {"s": "TkhXQw=="}, "filter_format": {"s": "SFdJTw=="}, "fused_ops": {"list": {"s": ["Qmlhc0FkZA=="]}}, "num_args": {"i": "1"}, "strides": {"list": {"i": ["1", "1", "1", "1"]}}, "TArgs": {"list": {"type": ["DT_FLOAT"]}}, "padding": {"s": "U0FNRQ=="}, "use_cudnn_on_gpu": {"b": true}, "leakyrelu_alpha": {"f": 0.2}, "epsilon": {"f": 0.0}, "T": {"type": "DT_FLOAT"}, "explicit_paddings": {"list": {}}, "dilations": {"list": {"i": ["1", "1", "1", "1"]}}}}, {"name": "PartitionedCall/model_55/tf.concat_81/concat", "op": "ConcatV2", "input": ["PartitionedCall/model_55/tf.math.add_304/Add", "PartitionedCall/model_55/tf.math.add_305/Add", "PartitionedCall/model_55/tf.concat_81/concat/axis"], "attr": {"N": {"i": "2"}, "T": {"type": "DT_FLOAT"}, "Tidx": {"type": "DT_INT32"}}}, {"name": "PartitionedCall/model_55/tf.compat.v1.transpose_348/transpose", "op": "Transpose", "input": ["PartitionedCall/model_55/tf.concat_81/concat", "PartitionedCall/model_55/tf.compat.v1.transpose_348/transpose/perm"], "attr": {"Tperm": {"type": "DT_INT32"}, "T": {"type": "DT_FLOAT"}}}, {"name": "PartitionedCall/model_55/tf.reshape_53/Reshape", "op": "Reshape", "input": ["PartitionedCall/model_55/tf.compat.v1.transpose_348/transpose", "PartitionedCall/model_55/tf.reshape_53/Reshape/shape"], "attr": {"T": {"type": "DT_FLOAT"}, "Tshape": {"type": "DT_INT32"}}}, {"name": "PartitionedCall/model_55/tf.concat_82/concat", "op": "ConcatV2", "input": ["PartitionedCall/model_55/tf.reshape_47/Reshape", "PartitionedCall/model_55/tf.reshape_50/Reshape", "PartitionedCall/model_55/tf.reshape_53/Reshape", "PartitionedCall/model_55/tf.concat_82/concat/axis"], "attr": {"N": {"i": "3"}, "Tidx": {"type": "DT_INT32"}, "T": {"type": "DT_FLOAT"}}}, {"name": "PartitionedCall/model_55/tf.strided_slice_77/StridedSlice", "op": "StridedSlice", "input": ["PartitionedCall/model_55/tf.concat_82/concat", "unknown_173", "unknown_174", "PartitionedCall/model_55/tf.strided_slice_77/StridedSlice/strides"], "attr": {"shrink_axis_mask": {"i": "0"}, "Index": {"type": "DT_INT64"}, "new_axis_mask": {"i": "0"}, "begin_mask": {"i": "5"}, "end_mask": {"i": "5"}, "T": {"type": "DT_FLOAT"}, "ellipsis_mask": {"i": "0"}}}, {"name": "PartitionedCall/model_55/tf.strided_slice_76/StridedSlice", "op": "StridedSlice", "input": ["PartitionedCall/model_55/tf.concat_82/concat", "unknown_164", "unknown_165", "PartitionedCall/model_55/tf.strided_slice_76/StridedSlice/strides"], "attr": {"shrink_axis_mask": {"i": "0"}, "new_axis_mask": {"i": "0"}, "Index": {"type": "DT_INT64"}, "begin_mask": {"i": "7"}, "end_mask": {"i": "5"}, "T": {"type": "DT_FLOAT"}, "ellipsis_mask": {"i": "0"}}}, {"name": "PartitionedCall/model_55/tf.math.sigmoid_231/Sigmoid", "op": "Sigmoid", "input": ["PartitionedCall/model_55/tf.strided_slice_77/StridedSlice"], "attr": {"T": {"type": "DT_FLOAT"}}}, {"name": "PartitionedCall/model_55/tf.reshape_56/Reshape", "op": "Reshape", "input": ["PartitionedCall/model_55/tf.strided_slice_76/StridedSlice", "PartitionedCall/model_55/tf.reshape_56/Reshape/shape"], "attr": {"T": {"type": "DT_FLOAT"}, "Tshape": {"type": "DT_INT32"}}}, {"name": "PartitionedCall/model_55/tf.compat.v1.transpose_355/transpose", "op": "Transpose", "input": ["PartitionedCall/model_55/tf.reshape_56/Reshape", "PartitionedCall/model_55/tf.compat.v1.transpose_355/transpose/perm"], "attr": {"Tperm": {"type": "DT_INT32"}, "T": {"type": "DT_FLOAT"}}}, {"name": "PartitionedCall/model_55/tf.compat.v1.transpose_356/transpose", "op": "Transpose", "input": ["PartitionedCall/model_55/tf.compat.v1.transpose_355/transpose", "PartitionedCall/model_55/tf.compat.v1.transpose_356/transpose/perm"], "attr": {"Tperm": {"type": "DT_INT32"}, "T": {"type": "DT_FLOAT"}}}, {"name": "PartitionedCall/model_55/tf.nn.softmax_3//model.22/dfl/Softmax", "op": "Softmax", "input": ["PartitionedCall/model_55/tf.compat.v1.transpose_356/transpose"], "attr": {"T": {"type": "DT_FLOAT"}}}, {"name": "PartitionedCall/model_55/tf.nn.convolution_255/convolution", "op": "Conv2D", "input": ["PartitionedCall/model_55/tf.nn.softmax_3//model.22/dfl/Softmax", "unknown_166"], "device": "/device:CPU:0", "attr": {"padding": {"s": "U0FNRQ=="}, "data_format": {"s": "TkhXQw=="}, "use_cudnn_on_gpu": {"b": true}, "strides": {"list": {"i": ["1", "1", "1", "1"]}}, "T": {"type": "DT_FLOAT"}, "explicit_paddings": {"list": {}}, "dilations": {"list": {"i": ["1", "1", "1", "1"]}}}}, {"name": "PartitionedCall/model_55/tf.compat.v1.transpose_361/transpose", "op": "Transpose", "input": ["PartitionedCall/model_55/tf.nn.convolution_255/convolution", "PartitionedCall/model_55/tf.compat.v1.transpose_361/transpose/perm"], "attr": {"Tperm": {"type": "DT_INT32"}, "T": {"type": "DT_FLOAT"}}}, {"name": "PartitionedCall/model_55/tf.reshape_59/Reshape", "op": "Reshape", "input": ["PartitionedCall/model_55/tf.compat.v1.transpose_361/transpose", "PartitionedCall/model_55/tf.reshape_59/Reshape/shape"], "attr": {"T": {"type": "DT_FLOAT"}, "Tshape": {"type": "DT_INT32"}}}, {"name": "PartitionedCall/model_55/tf.strided_slice_79/StridedSlice", "op": "StridedSlice", "input": ["PartitionedCall/model_55/tf.reshape_59/Reshape", "unknown_167", "unknown_168", "PartitionedCall/model_55/tf.strided_slice_79/ones_like"], "attr": {"shrink_axis_mask": {"i": "0"}, "Index": {"type": "DT_INT64"}, "new_axis_mask": {"i": "0"}, "begin_mask": {"i": "5"}, "end_mask": {"i": "5"}, "T": {"type": "DT_FLOAT"}, "ellipsis_mask": {"i": "0"}}}, {"name": "PartitionedCall/model_55/tf.strided_slice_78/StridedSlice", "op": "StridedSlice", "input": ["PartitionedCall/model_55/tf.reshape_59/Reshape", "unknown_169", "unknown_170", "PartitionedCall/model_55/tf.strided_slice_78/ones_like"], "attr": {"shrink_axis_mask": {"i": "0"}, "new_axis_mask": {"i": "0"}, "Index": {"type": "DT_INT64"}, "begin_mask": {"i": "7"}, "end_mask": {"i": "5"}, "T": {"type": "DT_FLOAT"}, "ellipsis_mask": {"i": "0"}}}, {"name": "PartitionedCall/model_55/tf.math.add_306/Add", "op": "AddV2", "input": ["PartitionedCall/model_55/tf.strided_slice_79/StridedSlice", "unknown_171"], "attr": {"T": {"type": "DT_FLOAT"}}}, {"name": "PartitionedCall/model_55/tf.math.subtract_6/Sub", "op": "Sub", "input": ["unknown_172", "PartitionedCall/model_55/tf.strided_slice_78/StridedSlice"], "attr": {"T": {"type": "DT_FLOAT"}}}, {"name": "PartitionedCall/model_55/tf.math.add_307/Add", "op": "AddV2", "input": ["PartitionedCall/model_55/tf.math.subtract_6/Sub", "PartitionedCall/model_55/tf.math.add_306/Add"], "attr": {"T": {"type": "DT_FLOAT"}}}, {"name": "PartitionedCall/model_55/tf.math.subtract_7/Sub", "op": "Sub", "input": ["PartitionedCall/model_55/tf.math.add_306/Add", "PartitionedCall/model_55/tf.math.subtract_6/Sub"], "attr": {"T": {"type": "DT_FLOAT"}}}, {"name": "PartitionedCall/model_55/tf.math.divide_3/truediv", "op": "Mul", "input": ["PartitionedCall/model_55/tf.math.add_307/Add", "ConstantFolding/PartitionedCall/model_55/tf.math.divide_3/truediv_recip"], "attr": {"T": {"type": "DT_FLOAT"}}}, {"name": "PartitionedCall/model_55/tf.concat_86/concat", "op": "ConcatV2", "input": ["PartitionedCall/model_55/tf.math.divide_3/truediv", "PartitionedCall/model_55/tf.math.subtract_7/Sub", "PartitionedCall/model_55/tf.concat_86/concat/axis"], "attr": {"N": {"i": "2"}, "Tidx": {"type": "DT_INT32"}, "T": {"type": "DT_FLOAT"}}}, {"name": "PartitionedCall/model_55/tf.math.multiply_1011/Mul", "op": "Mul", "input": ["PartitionedCall/model_55/tf.concat_86/concat", "PartitionedCall/model_55/tf.math.multiply_1011/Mul/y"], "attr": {"T": {"type": "DT_FLOAT"}}}, {"name": "PartitionedCall/model_55/output0/concat", "op": "ConcatV2", "input": ["PartitionedCall/model_55/tf.math.multiply_1011/Mul", "PartitionedCall/model_55/tf.math.sigmoid_231/Sigmoid", "PartitionedCall/model_55/output0/concat/axis"], "attr": {"N": {"i": "2"}, "T": {"type": "DT_FLOAT"}, "Tidx": {"type": "DT_INT32"}}}, {"name": "Identity", "op": "Identity", "input": ["PartitionedCall/model_55/output0/concat"], "attr": {"T": {"type": "DT_FLOAT"}}}], "library": {}, "versions": {"producer": 1994}}, "weightsManifest": [{"paths": ["group1-shard1of3.bin", "group1-shard2of3.bin", "group1-shard3of3.bin"], "weights": [{"name": "ConstantFolding/PartitionedCall/model_55/tf.math.divide_3/truediv_recip", "shape": [], "dtype": "float32"}, {"name": "unknown_167", "shape": [3], "dtype": "int32"}, {"name": "unknown_168", "shape": [3], "dtype": "int32"}, {"name": "PartitionedCall/model_55/tf.strided_slice_79/ones_like", "shape": [3], "dtype": "int32"}, {"name": "unknown_171", "shape": [1, 2, 8400], "dtype": "float32"}, {"name": "unknown_172", "shape": [1, 2, 8400], "dtype": "float32"}, {"name": "unknown_164", "shape": [3], "dtype": "int32"}, {"name": "unknown_165", "shape": [3], "dtype": "int32"}, {"name": "PartitionedCall/model_55/tf.strided_slice_76/StridedSlice/strides", "shape": [3], "dtype": "int32"}, {"name": "PartitionedCall/model_55/tf.reshape_56/Reshape/shape", "shape": [4], "dtype": "int32"}, {"name": "PartitionedCall/model_55/tf.compat.v1.transpose_355/transpose/perm", "shape": [4], "dtype": "int32"}, {"name": "PartitionedCall/model_55/tf.compat.v1.transpose_356/transpose/perm", "shape": [4], "dtype": "int32"}, {"name": "unknown_166", "shape": [1, 1, 16, 1], "dtype": "float32"}, {"name": "PartitionedCall/model_55/tf.compat.v1.transpose_361/transpose/perm", "shape": [4], "dtype": "int32"}, {"name": "PartitionedCall/model_55/tf.reshape_59/Reshape/shape", "shape": [3], "dtype": "int32"}, {"name": "unknown_169", "shape": [3], "dtype": "int32"}, {"name": "unknown_170", "shape": [3], "dtype": "int32"}, {"name": "PartitionedCall/model_55/tf.strided_slice_78/ones_like", "shape": [3], "dtype": "int32"}, {"name": "PartitionedCall/model_55/tf.concat_86/concat/axis", "shape": [], "dtype": "int32"}, {"name": "PartitionedCall/model_55/tf.math.multiply_1011/Mul/y", "shape": [1, 1, 8400], "dtype": "float32"}, {"name": "unknown_133", "shape": [3, 3, 64, 64], "dtype": "float32"}, {"name": "unknown_139", "shape": [64], "dtype": "float32"}, {"name": "unknown_145", "shape": [3, 3, 64, 64], "dtype": "float32"}, {"name": "unknown_151", "shape": [64], "dtype": "float32"}, {"name": "unknown_157", "shape": [1, 1, 64, 64], "dtype": "float32"}, {"name": "unknown_162", "shape": [64], "dtype": "float32"}, {"name": "unknown_132", "shape": [3, 3, 64, 64], "dtype": "float32"}, {"name": "unknown_138", "shape": [64], "dtype": "float32"}, {"name": "unknown_144", "shape": [3, 3, 64, 64], "dtype": "float32"}, {"name": "unknown_150", "shape": [64], "dtype": "float32"}, {"name": "unknown_156", "shape": [1, 1, 64, 24], "dtype": "float32"}, {"name": "unknown_163", "shape": [24], "dtype": "float32"}, {"name": "PartitionedCall/model_55/tf.concat_76/concat/axis", "shape": [], "dtype": "int32"}, {"name": "PartitionedCall/model_55/tf.compat.v1.transpose_322/transpose/perm", "shape": [4], "dtype": "int32"}, {"name": "PartitionedCall/model_55/tf.reshape_47/Reshape/shape", "shape": [3], "dtype": "int32"}, {"name": "unknown_131", "shape": [3, 3, 128, 64], "dtype": "float32"}, {"name": "unknown_137", "shape": [64], "dtype": "float32"}, {"name": "unknown_143", "shape": [3, 3, 64, 64], "dtype": "float32"}, {"name": "unknown_149", "shape": [64], "dtype": "float32"}, {"name": "unknown_155", "shape": [1, 1, 64, 64], "dtype": "float32"}, {"name": "unknown_160", "shape": [64], "dtype": "float32"}, {"name": "unknown_130", "shape": [3, 3, 128, 64], "dtype": "float32"}, {"name": "unknown_136", "shape": [64], "dtype": "float32"}, {"name": "unknown_142", "shape": [3, 3, 64, 64], "dtype": "float32"}, {"name": "unknown_148", "shape": [64], "dtype": "float32"}, {"name": "unknown_154", "shape": [1, 1, 64, 24], "dtype": "float32"}, {"name": "unknown_161", "shape": [24], "dtype": "float32"}, {"name": "PartitionedCall/model_55/tf.concat_79/concat/axis", "shape": [], "dtype": "int32"}, {"name": "PartitionedCall/model_55/tf.compat.v1.transpose_336/transpose/perm", "shape": [4], "dtype": "int32"}, {"name": "PartitionedCall/model_55/tf.reshape_50/Reshape/shape", "shape": [3], "dtype": "int32"}, {"name": "unknown_129", "shape": [3, 3, 256, 64], "dtype": "float32"}, {"name": "unknown_135", "shape": [64], "dtype": "float32"}, {"name": "unknown_141", "shape": [3, 3, 64, 64], "dtype": "float32"}, {"name": "unknown_147", "shape": [64], "dtype": "float32"}, {"name": "unknown_153", "shape": [1, 1, 64, 64], "dtype": "float32"}, {"name": "unknown_158", "shape": [64], "dtype": "float32"}, {"name": "unknown_124", "shape": [4], "dtype": "int32"}, {"name": "unknown_125", "shape": [4], "dtype": "int32"}, {"name": "PartitionedCall/model_55/tf.strided_slice_74/ones_like", "shape": [4], "dtype": "int32"}, {"name": "unknown_109", "shape": [4], "dtype": "int32"}, {"name": "unknown_110", "shape": [4], "dtype": "int32"}, {"name": "PartitionedCall/model_55/tf.strided_slice_72/ones_like", "shape": [4], "dtype": "int32"}, {"name": "unknown_94", "shape": [4], "dtype": "int32"}, {"name": "unknown_95", "shape": [4], "dtype": "int32"}, {"name": "PartitionedCall/model_55/tf.strided_slice_70/ones_like", "shape": [4], "dtype": "int32"}, {"name": "PartitionedCall/model_55/tf.image.resize_7/resize/size", "shape": [2], "dtype": "int32"}, {"name": "PartitionedCall/model_55/tf.concat_73/concat/axis", "shape": [], "dtype": "int32"}, {"name": "unknown_86", "shape": [1, 1, 192, 64], "dtype": "float32"}, {"name": "unknown_87", "shape": [64], "dtype": "float32"}, {"name": "unknown_88", "shape": [4], "dtype": "int32"}, {"name": "unknown_89", "shape": [4], "dtype": "int32"}, {"name": "PartitionedCall/model_55/tf.strided_slice_71/ones_like", "shape": [4], "dtype": "int32"}, {"name": "unknown_90", "shape": [3, 3, 32, 32], "dtype": "float32"}, {"name": "unknown_91", "shape": [32], "dtype": "float32"}, {"name": "unknown_92", "shape": [3, 3, 32, 32], "dtype": "float32"}, {"name": "unknown_93", "shape": [32], "dtype": "float32"}, {"name": "PartitionedCall/model_55/tf.concat_74/concat/axis", "shape": [], "dtype": "int32"}, {"name": "unknown_96", "shape": [1, 1, 96, 64], "dtype": "float32"}, {"name": "unknown_97", "shape": [64], "dtype": "float32"}, {"name": "unknown_98", "shape": [4, 2], "dtype": "int32"}, {"name": "unknown_99", "shape": [3, 3, 64, 64], "dtype": "float32"}, {"name": "unknown_100", "shape": [64], "dtype": "float32"}, {"name": "unknown_82", "shape": [4], "dtype": "int32"}, {"name": "unknown_83", "shape": [4], "dtype": "int32"}, {"name": "PartitionedCall/model_55/tf.strided_slice_68/ones_like", "shape": [4], "dtype": "int32"}, {"name": "PartitionedCall/model_55/tf.image.resize_6/resize/size", "shape": [2], "dtype": "int32"}, {"name": "PartitionedCall/model_55/tf.concat_71/concat/axis", "shape": [], "dtype": "int32"}, {"name": "unknown_74", "shape": [1, 1, 384, 128], "dtype": "float32"}, {"name": "unknown_75", "shape": [128], "dtype": "float32"}, {"name": "unknown_76", "shape": [4], "dtype": "int32"}, {"name": "unknown_77", "shape": [4], "dtype": "int32"}, {"name": "PartitionedCall/model_55/tf.strided_slice_69/ones_like", "shape": [4], "dtype": "int32"}, {"name": "unknown_78", "shape": [3, 3, 64, 64], "dtype": "float32"}, {"name": "unknown_79", "shape": [64], "dtype": "float32"}, {"name": "unknown_80", "shape": [3, 3, 64, 64], "dtype": "float32"}, {"name": "unknown_81", "shape": [64], "dtype": "float32"}, {"name": "PartitionedCall/model_55/tf.concat_72/concat/axis", "shape": [], "dtype": "int32"}, {"name": "unknown_84", "shape": [1, 1, 192, 128], "dtype": "float32"}, {"name": "unknown_85", "shape": [128], "dtype": "float32"}, {"name": "PartitionedCall/model_55/tf.concat_75/concat/axis", "shape": [], "dtype": "int32"}, {"name": "unknown_101", "shape": [1, 1, 192, 128], "dtype": "float32"}, {"name": "unknown_102", "shape": [128], "dtype": "float32"}, {"name": "unknown_103", "shape": [4], "dtype": "int32"}, {"name": "unknown_104", "shape": [4], "dtype": "int32"}, {"name": "PartitionedCall/model_55/tf.strided_slice_73/ones_like", "shape": [4], "dtype": "int32"}, {"name": "unknown_105", "shape": [3, 3, 64, 64], "dtype": "float32"}, {"name": "unknown_106", "shape": [64], "dtype": "float32"}, {"name": "unknown_107", "shape": [3, 3, 64, 64], "dtype": "float32"}, {"name": "unknown_108", "shape": [64], "dtype": "float32"}, {"name": "PartitionedCall/model_55/tf.concat_77/concat/axis", "shape": [], "dtype": "int32"}, {"name": "unknown_111", "shape": [1, 1, 192, 128], "dtype": "float32"}, {"name": "unknown_112", "shape": [128], "dtype": "float32"}, {"name": "unknown_113", "shape": [4, 2], "dtype": "int32"}, {"name": "unknown_114", "shape": [3, 3, 128, 128], "dtype": "float32"}, {"name": "unknown_115", "shape": [128], "dtype": "float32"}, {"name": "unknown_66", "shape": [4], "dtype": "int32"}, {"name": "unknown_67", "shape": [4], "dtype": "int32"}, {"name": "PartitionedCall/model_55/tf.strided_slice_66/ones_like", "shape": [4], "dtype": "int32"}, {"name": "unknown_51", "shape": [4], "dtype": "int32"}, {"name": "unknown_52", "shape": [4], "dtype": "int32"}, {"name": "PartitionedCall/model_55/tf.strided_slice_64/ones_like", "shape": [4], "dtype": "int32"}, {"name": "unknown_32", "shape": [4], "dtype": "int32"}, {"name": "unknown_33", "shape": [4], "dtype": "int32"}, {"name": "PartitionedCall/model_55/tf.strided_slice_62/ones_like", "shape": [4], "dtype": "int32"}, {"name": "unknown_13", "shape": [4], "dtype": "int32"}, {"name": "unknown_14", "shape": [4], "dtype": "int32"}, {"name": "PartitionedCall/model_55/tf.strided_slice_60/ones_like", "shape": [4], "dtype": "int32"}, {"name": "unknown", "shape": [4, 2], "dtype": "int32"}, {"name": "unknown_0", "shape": [3, 3, 3, 16], "dtype": "float32"}, {"name": "unknown_1", "shape": [16], "dtype": "float32"}, {"name": "unknown_2", "shape": [4, 2], "dtype": "int32"}, {"name": "unknown_3", "shape": [3, 3, 16, 32], "dtype": "float32"}, {"name": "unknown_4", "shape": [32], "dtype": "float32"}, {"name": "unknown_5", "shape": [1, 1, 32, 32], "dtype": "float32"}, {"name": "unknown_6", "shape": [32], "dtype": "float32"}, {"name": "unknown_7", "shape": [4], "dtype": "int32"}, {"name": "unknown_8", "shape": [4], "dtype": "int32"}, {"name": "PartitionedCall/model_55/tf.strided_slice_61/ones_like", "shape": [4], "dtype": "int32"}, {"name": "unknown_9", "shape": [3, 3, 16, 16], "dtype": "float32"}, {"name": "unknown_10", "shape": [16], "dtype": "float32"}, {"name": "unknown_11", "shape": [3, 3, 16, 16], "dtype": "float32"}, {"name": "unknown_12", "shape": [16], "dtype": "float32"}, {"name": "PartitionedCall/model_55/tf.concat_66/concat/axis", "shape": [], "dtype": "int32"}, {"name": "unknown_15", "shape": [1, 1, 48, 32], "dtype": "float32"}, {"name": "unknown_16", "shape": [32], "dtype": "float32"}, {"name": "unknown_17", "shape": [4, 2], "dtype": "int32"}, {"name": "unknown_18", "shape": [3, 3, 32, 64], "dtype": "float32"}, {"name": "unknown_19", "shape": [64], "dtype": "float32"}, {"name": "unknown_20", "shape": [1, 1, 64, 64], "dtype": "float32"}, {"name": "unknown_21", "shape": [64], "dtype": "float32"}, {"name": "unknown_22", "shape": [4], "dtype": "int32"}, {"name": "unknown_23", "shape": [4], "dtype": "int32"}, {"name": "PartitionedCall/model_55/tf.strided_slice_63/ones_like", "shape": [4], "dtype": "int32"}, {"name": "unknown_24", "shape": [3, 3, 32, 32], "dtype": "float32"}, {"name": "unknown_25", "shape": [32], "dtype": "float32"}, {"name": "unknown_26", "shape": [3, 3, 32, 32], "dtype": "float32"}, {"name": "unknown_27", "shape": [32], "dtype": "float32"}, {"name": "unknown_28", "shape": [3, 3, 32, 32], "dtype": "float32"}, {"name": "unknown_29", "shape": [32], "dtype": "float32"}, {"name": "unknown_30", "shape": [3, 3, 32, 32], "dtype": "float32"}, {"name": "unknown_31", "shape": [32], "dtype": "float32"}, {"name": "PartitionedCall/model_55/tf.concat_67/concat/axis", "shape": [], "dtype": "int32"}, {"name": "unknown_34", "shape": [1, 1, 128, 64], "dtype": "float32"}, {"name": "unknown_35", "shape": [64], "dtype": "float32"}, {"name": "unknown_36", "shape": [4, 2], "dtype": "int32"}, {"name": "unknown_37", "shape": [3, 3, 64, 128], "dtype": "float32"}, {"name": "unknown_38", "shape": [128], "dtype": "float32"}, {"name": "unknown_39", "shape": [1, 1, 128, 128], "dtype": "float32"}, {"name": "unknown_40", "shape": [128], "dtype": "float32"}, {"name": "unknown_41", "shape": [4], "dtype": "int32"}, {"name": "unknown_42", "shape": [4], "dtype": "int32"}, {"name": "PartitionedCall/model_55/tf.strided_slice_65/ones_like", "shape": [4], "dtype": "int32"}, {"name": "unknown_43", "shape": [3, 3, 64, 64], "dtype": "float32"}, {"name": "unknown_44", "shape": [64], "dtype": "float32"}, {"name": "unknown_45", "shape": [3, 3, 64, 64], "dtype": "float32"}, {"name": "unknown_46", "shape": [64], "dtype": "float32"}, {"name": "unknown_47", "shape": [3, 3, 64, 64], "dtype": "float32"}, {"name": "unknown_48", "shape": [64], "dtype": "float32"}, {"name": "unknown_49", "shape": [3, 3, 64, 64], "dtype": "float32"}, {"name": "unknown_50", "shape": [64], "dtype": "float32"}, {"name": "PartitionedCall/model_55/tf.concat_68/concat/axis", "shape": [], "dtype": "int32"}, {"name": "unknown_53", "shape": [1, 1, 256, 128], "dtype": "float32"}, {"name": "unknown_54", "shape": [128], "dtype": "float32"}, {"name": "unknown_55", "shape": [4, 2], "dtype": "int32"}, {"name": "unknown_56", "shape": [3, 3, 128, 256], "dtype": "float32"}, {"name": "unknown_57", "shape": [256], "dtype": "float32"}, {"name": "unknown_58", "shape": [1, 1, 256, 256], "dtype": "float32"}, {"name": "unknown_59", "shape": [256], "dtype": "float32"}, {"name": "unknown_60", "shape": [4], "dtype": "int32"}, {"name": "unknown_61", "shape": [4], "dtype": "int32"}, {"name": "PartitionedCall/model_55/tf.strided_slice_67/ones_like", "shape": [4], "dtype": "int32"}, {"name": "unknown_62", "shape": [3, 3, 128, 128], "dtype": "float32"}, {"name": "unknown_63", "shape": [128], "dtype": "float32"}, {"name": "unknown_64", "shape": [3, 3, 128, 128], "dtype": "float32"}, {"name": "unknown_65", "shape": [128], "dtype": "float32"}, {"name": "PartitionedCall/model_55/tf.concat_69/concat/axis", "shape": [], "dtype": "int32"}, {"name": "unknown_68", "shape": [1, 1, 384, 256], "dtype": "float32"}, {"name": "unknown_69", "shape": [256], "dtype": "float32"}, {"name": "unknown_70", "shape": [1, 1, 256, 128], "dtype": "float32"}, {"name": "unknown_71", "shape": [128], "dtype": "float32"}, {"name": "PartitionedCall/model_55/tf.concat_70/concat/axis", "shape": [], "dtype": "int32"}, {"name": "unknown_72", "shape": [1, 1, 512, 256], "dtype": "float32"}, {"name": "unknown_73", "shape": [256], "dtype": "float32"}, {"name": "PartitionedCall/model_55/tf.concat_78/concat/axis", "shape": [], "dtype": "int32"}, {"name": "unknown_116", "shape": [1, 1, 384, 256], "dtype": "float32"}, {"name": "unknown_117", "shape": [256], "dtype": "float32"}, {"name": "unknown_118", "shape": [4], "dtype": "int32"}, {"name": "unknown_119", "shape": [4], "dtype": "int32"}, {"name": "PartitionedCall/model_55/tf.strided_slice_75/ones_like", "shape": [4], "dtype": "int32"}, {"name": "unknown_120", "shape": [3, 3, 128, 128], "dtype": "float32"}, {"name": "unknown_121", "shape": [128], "dtype": "float32"}, {"name": "unknown_122", "shape": [3, 3, 128, 128], "dtype": "float32"}, {"name": "unknown_123", "shape": [128], "dtype": "float32"}, {"name": "PartitionedCall/model_55/tf.concat_80/concat/axis", "shape": [], "dtype": "int32"}, {"name": "unknown_126", "shape": [1, 1, 384, 256], "dtype": "float32"}, {"name": "unknown_127", "shape": [256], "dtype": "float32"}, {"name": "unknown_128", "shape": [3, 3, 256, 64], "dtype": "float32"}, {"name": "unknown_134", "shape": [64], "dtype": "float32"}, {"name": "unknown_140", "shape": [3, 3, 64, 64], "dtype": "float32"}, {"name": "unknown_146", "shape": [64], "dtype": "float32"}, {"name": "unknown_152", "shape": [1, 1, 64, 24], "dtype": "float32"}, {"name": "unknown_159", "shape": [24], "dtype": "float32"}, {"name": "PartitionedCall/model_55/tf.concat_81/concat/axis", "shape": [], "dtype": "int32"}, {"name": "PartitionedCall/model_55/tf.compat.v1.transpose_348/transpose/perm", "shape": [4], "dtype": "int32"}, {"name": "PartitionedCall/model_55/tf.reshape_53/Reshape/shape", "shape": [3], "dtype": "int32"}, {"name": "PartitionedCall/model_55/tf.concat_82/concat/axis", "shape": [], "dtype": "int32"}, {"name": "unknown_173", "shape": [3], "dtype": "int32"}, {"name": "unknown_174", "shape": [3], "dtype": "int32"}, {"name": "PartitionedCall/model_55/tf.strided_slice_77/StridedSlice/strides", "shape": [3], "dtype": "int32"}, {"name": "PartitionedCall/model_55/output0/concat/axis", "shape": [], "dtype": "int32"}]}]}